policy/go2_policy.onnx (onnx, 772916 bytes, 10 tensors)

mlp_1/sub/ReadVariableOp:0 f4 [48]
-0.0068531954 0.0017317826 0.00672598 0.00057675363 0.0012456555 0.000117816926 0.0062129097 -0.000341453
-0.9980791 -0.024179973 0.016892707 -0.109289095 0.03377468 0.045469992 -0.10925071 -0.04757169
0.014640298 -0.107537605 0.028645413 0.02344762 -0.10351816 0.0006420198 -0.00080115645 -0.020745283
0.00041164097 0.028449336 -0.09487644 -0.00042948592 0.011691912 -0.08946953 -0.002612716 -0.00340845
-0.02367735 -0.17150292 0.0037673807 0.10048362 0.20338695 0.058451694 0.12573984 -0.23330486
0.07288266 0.1463796 0.18517467 0.08107442 0.11897759 -0.0015600893 0.0004286334 0.0018233253
00000000: c590 e0bb fbfc e23a 9c65 dc3b 4831 173a
00000010: 4345 a33a 7b14 f738 aa95 cb3b 0c05 b3b9
00000020: 1d82 7fbf 1415 c6bc 9362 8a3c f6d2 dfbd
00000030: 5257 0a3d be3e 3a3d d6be dfbd 88da 42bd
00000040: dcdd 6f3c ad3c dcbd c9a9 ea3c 3915 c03c
00000050: 5401 d4bd 384d 283a b304 52ba 03f2 a9bc
00000060: 84d1 d739 950e e93c 944e c2bd a02c e1b9
00000070: 6f8f 3f3c cd3b b7bd 1a3a 2bbb 4d60 5fbb
00000080: 00f7 c1bc 769e 2fbe 29e6 763b 5bca cd3d
00000090: ab44 503e 0b6b 6f3d f2c1 003e 78e7 6ebe
000000a0: 8143 953d 89e4 153e 6e9e 3d3e 580a a63d
000000b0: 86aa f33d e97b ccba 33ba e039 a5fc ee3a

mlp_1/MLP_0_1/hidden_3_1/Cast/ReadVariableOp:0 f4 [128, 24]
-0.036681943 0.010621774 0.10508788 -0.008999202 -0.030852264 0.060871452 -0.04245669 0.009369543
-0.038892526 0.11349242 0.031131148 0.18312745 -0.00548242 0.033751205 0.027869515 0.018593341
0.003677935 0.021129364 0.09104455 0.02270865 0.06512128 0.07455372 0.032048393 0.14325136
0.036312394 0.0010277141 0.043382134 -0.04343818 -0.051148508 -0.016113436 -0.09774216 0.007807091
-0.061533708 0.06682659 0.030769244 0.024757277 0.09798769 0.028997162 0.10256557 0.0360712
0.039771393 0.09674414 0.11949626 0.060416836 0.03130975 0.10430061 0.014973691 0.16172656
0.07181185 0.005150692 -0.22273113 -0.024130953 -0.077166736 0.016998455 0.016599404 -0.04272486
-0.020708816 -0.0019330503 0.005389239 -0.28672147 -0.008222029 0.036382187 0.07370488 -0.035604216
-0.041303925 -0.020046474 -0.05237381 -0.032412097 -0.0138312 -0.0421162 0.045265462 0.12622386
-0.030645091 -0.021641176 -0.111254156 0.14885828 0.105340876 -0.049415812 0.030132776 -0.021258099
0.043516055 -0.03294039 -0.05089693 -0.047386914 0.017603088 0.123580165 0.070473775 0.12150263
0.03924043 0.0038149771 0.0628831 0.09028665 -0.0050908383 0.014209719 0.06878455 0.07160656
0.008392423 0.07867322 -0.18748905 -0.06479766 0.016958233 -0.07983459 -0.0026486383 0.019408798
-0.15229955 -0.01244423 0.007192697 -0.13735682 0.062051013 0.032612424 0.08226379 -0.0041279844
0.10374528 0.014501912 0.03030477 0.10839656 0.10058512 0.09270895 0.04480177 0.06577095
-0.10354717 0.03669302 -0.103134975 0.07168617 -0.07388032 0.06529662 0.035964288 0.031168068
-0.06916612 0.049795687 0.12865074 0.04223162 0.16188331 -0.030320803 0.10229135 0.18027079
0.1692826 0.09920583 0.18271168 0.2083524 0.18316595 0.15475416 0.2840303 0.19594869
0.0996556 -0.11509568 0.028531764 -0.061876822 -0.07240928 -0.04964073 0.02030712 -0.111716725
-0.041395042 -0.080603324 0.051323056 0.0043089227 0.010446781 0.024358626 -0.00493866 0.08249908
0.15019031 0.010735511 0.12247695 0.1512461 0.027125891 0.036250845 0.086427115 0.05192416
0.026626797 0.03909575 -0.1917417 0.054197498 0.006244747 -0.021225497 -0.068347394 0.028002046
0.055985402 -0.052014504 0.031714704 -0.21915606 0.007672599 0.029658582 0.0937015 -0.029065283
-0.008035171 -0.067627065 -0.028044906 -0.06570318 -0.0011779543 0.028584184 0.011741799 0.15477146
-0.081485175 0.024069102 0.24268624 -0.07417422 0.062869236 -0.20293088 0.072806835 0.041824684
-0.19728701 0.06564474 0.016203932 0.2399221 -0.040061455 -0.047135048 0.09121557 -0.03631671
-0.02896684 0.034462083 -0.0375645 -0.012770555 0.069279164 -0.081260145 -0.088702455 0.11661225
0.017448809 -0.021593671 -0.033990297 0.008492228 -0.065178014 -0.073361605 -0.0035947391 0.0011715216
0.0069302204 -0.026619637 -0.07711839 -0.016939394 -0.043911293 -0.020805111 -0.11829172 -0.05838602
-0.016742181 -0.106349446 -0.021149125 -0.1058248 -0.06922534 0.019087974 0.001022494 -0.037972182
-0.05119977 0.07474049 0.0736156 0.10255074 0.060516328 0.018827738 -0.07813622 -0.080145456
-0.13501239 -0.013814845 -0.043687504 0.06668458 0.0653384 0.2028319 0.16678824 0.21639267
00000000: ce3f 16bd f306 2e3c 5038 d73d 6471 13bc
00000010: e3bd fcbc 5854 793d 11e7 2dbd b682 193c
00000020: c54d 1fbd b76e e83d c006 ff3c c385 3b3e
00000030: dfa5 b3bb b43e 0a3d 9c4e e43c 1051 983c
00000040: 8309 713b 7d17 ad3c 9175 ba3d 7e07 ba3c
00000050: 4e5e 853d 9faf 983d 2d45 033d 7cb0 123e
00000060: 4ebc 143d 5db4 863a 77b1 313d 3cec 31bd
00000070: 1981 51bd 5300 84bc 0b2d c8bd a0d2 ff3b
00000080: c50a 7cbd 61dc 883d c80f fc3c c6cf ca3c
00000090: c5ad c83d 758b ed3c e60d d23d 65bf 133d
000000a0: 54e7 223d cb21 c63d 75ba f43d a577 773d
000000b0: a73e 003d 8f9b d53d 3654 753c a69b 253e
000000c0: 1712 933d 23c7 a83b a113 64be 47ae c5bc
000000d0: 9809 9ebd 5840 8b3c 79fb 873c 4300 2fbd
000000e0: 89a5 a9bc 685e fdba 3798 b03b 28cd 92be
000000f0: b0b5 06bc 7d05 153d 96f2 963d bad5 11bd
00000100: 4e2e 29bd 8138 a4bc ec85 56bd 8cc2 04bd
00000110: 429c 62bc 0982 2cbd 4768 393d d440 013e
00000120: 6a0b fbbc d648 b1bc 38d9 e3bd 4e6e 183e
00000130: f5bc d73d 3c68 4abd 03d9 f63c 7725 aebc
00000140: e43d 323d 81ec 06bd 4d79 50bd c818 42bd
00000150: 5a34 903c 9917 fd3d 8e54 903d 5fd6 f83d
00000160: 93ba 203d b204 7a3b dbc8 803d 35e8 b83d
00000170: 0cd1 a6bb e2cf 683c eade 8c3d 76a6 923d
00000180: 6080 093c 6d1f a13d 21fd 3fbe a3b4 84bd
00000190: feeb 8a3c 5180 a3bd c794 2dbb 33ff 9e3c
000001a0: 6af4 1bbe e2e2 4bbc b7b0 eb3b 44a7 0cbe
000001b0: 3429 7e3d 9b94 053d eb79 a83d 0b44 87bb
000001c0: 6878 d43d 6d99 6d3c b641 f83c 04ff dd3d
000001d0: 92ff cd3d 31de bd3d 1082 373d ebb2 863d
000001e0: 8a10 d4bd 6c4b 163d 6e38 d3bd 33d0 923d
000001f0: 914e 97bd 3cba 853d 4a4f 133d 2d54 ff3c
00000200: f7a6 8dbd 90f6 4b3d 05bd 033e 10fb 2c3d
00000210: bdc4 253e 5563 f8bc 217e d13d e898 383e
00000220: 6b58 2d3e 6d2c cb3d c518 3b3e 555a 553e
00000230: db8f 3b3e e077 1e3e 6b6c 913e c6a6 483e
00000240: 3c18 cc3d 49b7 ebbd 72bb e93c 8d72 7dbd
00000250: 514b 94bd 1454 4bbd 1e5b a63c bdcb e4bd
00000260: d98d 29bd 5b13 a5bd 2038 523d dd31 8d3b
00000270: fa28 2b3c be8b c73c 7cd4 a1bb 47f5 a83d
00000280: 7dcb 193e ffe3 2f3c 32d5 fa3d 42e0 1a3e
00000290: 1e37 de3c c47b 143d b300 b13d 6eae 543d
000002a0: 7120 da3c dd22 203d f057 44be 32fe 5d3d
000002b0: bca0 cc3b 18e1 adbc b8f9 8bbd 8c64 e53c
000002c0: f350 653d 290d 55bd 47e7 013d 726a 60be
000002d0: 6d6a fb3b 8ef6 f23c 92e6 bf3d 511a eebc
000002e0: f3a5 03bc 0f80 8abd 6ebe e5bc 648f 86bd
000002f0: 9665 9aba 6129 ea3c ad60 403c 697c 1e3e
00000300: b3e1 a6bd 912c c53c be82 783e a7e8 97bd
00000310: 96c1 803d 1dcd 4fbe c01b 953d 5c50 2b3d
00000320: 9b05 4abe c070 863d 1cbe 843c 24ae 753e
00000330: 7b17 24bd ae10 41bd 3bcf ba3d d5c0 14bd
00000340: de4b edbc 1d28 0d3d 3cdd 19bd 973b 51bc
00000350: 3ce2 8d3d b86b a6bd a2a9 b5bd 67d2 ee3d
00000360: cef0 8e3c 36e5 b0bc 6939 0bbd fc22 0b3c
00000370: 0d7c 85bd 9c3e 96bd b795 6bbb be8d 993a
00000380: e716 e33b 6d11 dabc 3ff0 9dbd 7cc4 8abc
00000390: 54dc 33bd 7b6f aabc ee42 f2bd 2e26 6fbd
000003a0: e626 89bc bdcd d9bd ee40 adbc acba d8bd
000003b0: 04c6 8dbd 625e 9c3c 3505 863a b888 1bbd
000003c0: dab6 51bd 8b11 993d c7c3 963d 1f06 d23d
000003d0: f8df 773d a13c 9a3c e205 a0bd 4d23 a4bd
000003e0: b040 0abe a957 62bc abf1 32bd ed91 883d
000003f0: 24d0 853d 2ab3 4f3e 89ca 2a3e 0a96 5d3e

mlp_1/MLP_0_1/hidden_3_1/BiasAdd/ReadVariableOp:0 f4 [24]
-0.046466015 -0.0048395386 0.027199458 0.043848757 0.01083238 0.059821773 -0.040096488 0.026819257
0.027921382 0.019703256 0.016512416 0.022204807 -0.34152508 -0.21186443 -0.21772176 -0.3040088
-0.23294291 -0.21402058 -0.32059348 -0.284197 -0.20377794 -0.31694373 -0.27081916 -0.19488284
00000000: 2653 3ebd fe94 9ebb 66d1 de3c c19a 333d
00000010: 4b7a 313c ad07 753d 373c 24bd 0fb4 db3c
00000020: 62bb e43c b968 a13c 0c45 873c dbe6 b53c
00000030: 60dc aebe fdf2 58be 74f2 5ebe 0ba7 9bbe
00000040: 9688 6ebe 3628 5bbe d424 a4be 4582 91be
00000050: 2aab 50be 7346 a2be cfa8 8abe 5e8f 47be

mlp_1/MLP_0_1/hidden_2_1/Cast/ReadVariableOp:0 f4 [256, 128]
-0.18967232 -0.04408606 0.04855223 -0.124128655 -0.041193966 0.17769088 0.029385736 0.01849655
0.024467694 0.026999813 -0.056753572 -0.044005655 -0.014937546 0.009157505 -0.010293212 -0.02299238
0.07230108 -0.022555053 -0.19732392 -0.022287993 0.02221355 -0.057469204 0.04630762 -0.047562238
0.033515893 -0.0839954 -0.024007006 -0.06583777 -0.06741107 0.1571142 -0.12896521 -0.033582162
-0.022837687 -0.07849298 0.14808184 -0.11900886 -0.027955364 -0.15905808 -0.039001655 0.08832
0.046469625 0.21563123 -0.081439316 -0.07776256 -0.037958857 0.021791756 -0.067100026 -0.025132222
-0.064660914 0.017275412 -0.017312568 0.14898972 0.118558824 -0.12083122 -0.03722013 -0.052572917
-0.143928 0.004662103 0.09194585 -0.1748729 0.09419391 0.06534346 -0.018898705 -0.026641311
0.1069817 0.021366986 0.07718058 0.05226252 -0.10744579 -0.033836514 0.0835884 0.07275419
-0.0036570656 -0.10532635 -0.028230006 -0.09416205 0.004312259 -0.10969343 -0.00035596383 0.053312033
0.064786434 -0.0681229 0.07528633 0.0029647693 0.06831195 0.13352092 0.022679238 0.0337702
0.058255896 -0.0021031161 -0.022165962 0.13167068 -0.18989721 0.006930924 -0.042433027 -0.010971459
-0.014913137 0.08192145 0.024380576 -0.06452056 0.01311008 -0.1355142 -0.007857907 -0.026341613
0.018030958 -0.06430409 -0.027636359 -0.014126278 -0.06140621 -0.04309722 -0.0973842 0.11281396
0.084197134 0.13318492 0.038591906 0.13558353 0.08592862 0.12017036 0.06416564 0.109107524
0.030142393 0.027338771 0.10385805 0.08123958 0.12600677 0.05408989 -5.6761488e-05 -0.12707138
0.10174512 0.036234796 -0.015674178 0.25438935 0.04005137 0.19016746 0.022029877 -0.079863906
-0.05005877 -0.029632986 0.30634347 0.017787417 0.15708362 -0.006424821 0.113513984 -0.00595296
0.08796377 0.16910191 0.20100562 0.12180182 0.041417208 -0.021821441 0.006180166 0.040735975
-0.053189367 0.019217717 0.14575155 0.0031847304 0.051535174 0.2885784 -0.010418614 0.12412731
0.21823739 0.01311298 0.12748715 0.08007201 0.06535971 0.024618017 -0.08073625 0.056582604
0.07478575 0.02430108 -0.0055599534 0.13794313 0.18838407 0.055570077 0.041083805 -0.16773374
0.1089547 0.15545052 0.26509735 0.12275707 0.054394014 0.001752359 0.19592811 0.050803024
-0.03542676 -0.024169477 0.16149831 0.014181494 -0.117789894 0.14249046 0.010122814 0.110718206
0.30859414 -0.07710034 -0.037108753 0.063463785 0.06507078 0.10063015 0.07306183 0.03354126
0.27339053 0.10070658 -0.06205762 -0.03239782 0.18086588 0.056911528 0.028754467 -0.18406956
0.12741633 0.016954482 0.24266456 0.21106732 -0.038153317 -0.17572731 0.18088737 0.107407585
0.15267459 0.011215497 0.02310166 -0.043883633 0.20752423 0.018333465 -0.07966515 -0.061004557
-0.056714866 -0.062283654 -0.094328284 -0.070654154 -0.06411407 0.10962725 -0.021016343 -0.018068414
-0.0039203065 0.12902363 0.12059796 0.11888936 0.09765236 0.11933757 0.04596069 -0.017230522
-0.046024907 0.09586872 0.17035976 0.059555613 0.047389686 0.21471676 0.15229063 0.12556353
0.13020813 0.03704429 0.106207594 0.040498506 0.07154108 0.09492446 -0.0057036728 0.08679766
00000000: 7639 42be 9693 34bd b4de 463d 2a37 febd
00000010: 01bb 28bd 99f4 353e 5bba f03c 1486 973c
00000020: 7970 c83c b62e dd3c 6f76 68bd 463f 34bd
00000030: 9cbc 74bc 5c09 163c dca4 28bc 845a bcbc
00000040: 9712 943d 60c5 b8bc 480f 4abe 4f95 b6bc
00000050: 31f9 b53c d464 6bbd 0fad 3d3d 9fd0 42bd
00000060: f647 093d c805 acbd 57aa c4bc f4d5 86bd
00000070: d10e 8abd 8be2 203e 750f 04be 738d 09bd
00000080: 1a16 bbbc edc0 a0bd c4a2 173e ebba f3bd
00000090: a602 e5bc 1fe0 22be 33c0 1fbd 1ee1 b43d
000000a0: ef56 3e3d 6fce 5c3e a8c9 a6bd fa41 9fbd
000000b0: bf7a 1bbd a084 b23c bd6b 89bd 17e2 cdbc
000000c0: f16c 84bd 2a85 8d3c 16d3 8dbc c390 183e
000000d0: f8ce f23d 5c76 f7bd 2374 18bd b356 57bd
000000e0: dd61 13be 8ec4 983b 1b4e bc3d e211 33be
000000f0: bde8 c03d cbd2 853d 75d1 9abc e13e dabc
00000100: 3919 db3d d109 af3c da10 9e3d 3911 563d
00000110: 8a0c dcbd 2898 0abd 6530 ab3d 2600 953d
00000120: 61ab 6fbb 57b5 d7bd 9d42 e7bc 08d8 c0bd
00000130: da4d 8d3b f3a6 e0bd a8a0 bab9 b85d 5a3d
00000140: c0ae 843d 0584 8bbd b82f 9a3d 934c 423b
00000150: 23e7 8b3d b5b9 083e cfc9 b93c 9f52 0a3d
00000160: bc9d 6e3d 6fd4 09bb 6495 b5bc aed4 063e
00000170: 6a74 42be ce1c e33b 41ce 2dbd a2c1 33bc
00000180: 3b56 74bc 6fc6 a73d c6b9 c73c 5b23 84bd
00000190: a9cb 563c 3cc4 0abe 73be 00bc 5eca d7bc
000001a0: a9b5 933c ddb1 83bd a565 e2bc e871 67bc
000001b0: 1485 7bbd b686 30bd 5e71 c7bd 010b e73d
000001c0: 8c6f ac3d a161 083e 8c12 1e3d 69d6 0a3e
000001d0: 58fb af3d e11b f63d 4669 833d c473 df3d
000001e0: 2eed f63c 8ff5 df3c 88b3 d43d f060 a63d
000001f0: eb07 013e 5c8d 5d3d 2f13 6eb8 001f 02be
00000200: bf5f d03d f06a 143d 2267 80bc 523f 823e
00000210: e80c 243d 42bb 423e 0078 b43c b08f a3bd
00000220: 6d0a 4dbd e0c0 f2bc 0dd9 9c3e ebb6 913c
00000230: 87da 203e 4e87 d2bb 057a e83d 0c11 c3bb
00000240: 5926 b43d 0d29 2d3e 6bd4 4d3e 3c73 f93d
00000250: 17a5 293d e1c2 b2bc fd82 ca3b c4da 263d
00000260: 18dd 59bd 796e 9d3c e53f 153e e9b6 503b
00000270: 8c16 533d 8cc0 933e d6b2 2abc 7636 fe3d
00000280: 9f79 5f3e d3d7 563c fe8b 023e cbfc a33d
00000290: 50db 853d b9ab c93c 0c59 a5bd 29c3 673d
000002a0: 4529 993d 0f13 c73c 4530 b6bb f740 0d3e
000002b0: c1e7 403e 739d 633d 7e47 283d 65c2 2bbe
000002c0: a423 df3d 6c2e 1f3e d7ba 873e 0f68 fb3d
000002d0: 42cc 5e3d 69af e53a 61a1 483e d516 503d
000002e0: a61b 11bd 11ff c5bc d05f 253e 7f59 683c
000002f0: d43b f1bd 05e9 113e 29da 253c 3ac0 e23d
00000300: 0d00 9e3e c8e6 9dbd 59ff 17bd 4df9 813d
00000310: d443 853d 2e17 ce3d 71a1 953d 8f62 093d
00000320: d8f9 8b3e 403f ce3d 2230 7ebd 94b3 04bd
00000330: e834 393e 101c 693d 7d8e eb3c bb7c 3cbe
00000340: 6d79 023e 20e4 8a3c 0f7d 783e 0822 583e
00000350: a746 1cbd dcf1 33be 8a3a 393e 82f8 db3d
00000360: ba56 1c3e 34c1 373c b13f bd3c 53bf 33bd
00000370: 3b81 543e 1030 963c 7b27 a3bd eadf 79bd
00000380: d94d 68bd 251d 7fbd 302f c1bd 20b3 90bd
00000390: 3d4e 83bd 4084 e03d 772a acbc 3604 94bc
000003a0: ea75 80bb c51e 043e 10fc f63d 447c f33d
000003b0: f6fd c73d 4267 f43d 4741 3c3d 0627 8dbc
000003c0: 9d84 3cbd d256 c43d ca72 2e3e 96f0 733d
000003d0: b01b 423d b6de 5b3e 13f2 1b3e ba93 003e
000003e0: 4855 053e c1bb 173d 5e83 d93d c3e1 253d
000003f0: 2184 923d c167 c23d e0e5 babb f9c2 b13d

mlp_1/MLP_0_1/hidden_2_1/BiasAdd/ReadVariableOp:0 f4 [128]
0.03320383 -0.08743495 -0.021534724 -0.15361623 -0.05085035 -0.30095112 -0.16497079 -0.012144267
0.122128546 0.005171177 -0.29655766 0.037372544 -0.045350216 0.010928433 -0.1612553 -0.03685785
-0.36987925 -0.021943498 -0.085091576 -0.12393201 0.0077927713 -0.106796205 -0.12377567 -0.15826157
-0.040729973 -0.0025305029 -0.3026193 -0.1314016 -0.11032073 -0.34019724 -0.03975686 -0.097037286
-0.3144285 -0.04012682 -0.21035525 -0.069812335 0.026148044 0.040179394 -0.053212356 -0.018775284
-0.003108211 -0.053547796 -0.069825016 -0.1212011 -0.0020106449 -0.045304924 -0.23204751 -0.18186839
-0.07332127 -0.045413896 -0.065262154 -0.29810786 -0.21153852 -0.11376447 -0.23844354 -0.07091428
-0.018606385 -0.00051715196 -0.040485196 -0.26522493 -0.10289868 0.041664112 -0.023543386 -0.09045345
-0.20717981 -0.048698764 -0.19563776 -0.17898043 -0.010901569 -0.12989254 -0.034403246 -0.11246243
-0.20117792 -0.06278799 -0.09044885 -0.32871157 -0.3343683 -0.27245274 -0.09117413 0.017744256
0.04616977 -0.122895 -0.27269545 -0.42379016 -0.08453254 -0.08919551 -0.116310924 -0.16341105
-0.034811623 0.0035226666 0.012041685 -0.1518659 -0.33384365 -0.027202753 0.004519759 -0.08787595
-0.12500861 -0.044248156 -0.26462102 -0.0919563 0.035847448 -0.22707644 -0.106499664 -0.044146594
0.03302201 -0.15410286 -0.01646678 -0.06898539 -0.08373125 -0.24957216 -0.0643269 -0.09369796
-0.14844124 -0.09268629 -0.04743039 -0.28010005 -0.119222775 -0.13614608 -0.25265303 -0.022378022
-0.041498512 -0.054041132 -0.25925258 -0.070854105 -0.18355985 0.008086357 -0.15512468 -0.06943128
00000000: bd00 083d 1811 b3bd 9769 b0bc 934d 1dbe
00000010: 7548 50bd 4416 9abe 1aee 28be bff8 46bc
00000020: 881e fa3d fa72 a93b 68d6 97be f413 193d
00000030: 26c1 39bd 2c0d 333c 1c20 25be 42f8 16bd
00000040: d060 bdbe dac2 b3bc 7e44 aebd 11d0 fdbd
00000050: 815a ff3b f8b7 dabd 197e fdbd 520f 22be
00000060: 79d4 26bd cbd6 25bb ebf0 9abe 248e 06be
00000070: d6ef e1bd 552e aebe 17d8 22bd 7cbb c6bd
00000080: c6fc a0be 055c 24bd 5e67 57be c5f9 8ebd
00000090: 6c34 d63c 2693 243d 33f5 59bd a0ce 99bc
000000a0: 21b3 4bbb ef54 5bbd 6b00 8fbd 4838 f8bd
000000b0: 06c5 03bb a891 39bd dd9d 6dbe b53b 3abe
000000c0: 7629 96bd ec03 3abd 2aa8 85bd 98a1 98be
000000d0: 8e9d 58be 59fd e8bd 8b2a 74be 823b 91bd
000000e0: 6b6c 98bc 7b91 07ba ced3 25bd 90cb 87be
000000f0: 8bbc d2bd fda7 2a3d 0fde c0bc a93f b9bd
00000100: f226 54be 5b78 47bd 4455 48be a546 37be
00000110: 7f9c 32bc 8d02 05be 6bea 0cbd b452 e6bd
00000120: 9601 4ebe fd96 80bd 3f3d b9bd e24c a8be
00000130: 5232 abbe ed7e 8bbe 81b9 babd 675c 913c
00000140: 831c 3d3d 60b0 fbbd bd9e 8bbe 06fb d8be
00000150: 651f adbd 23ac b6bd 6c34 eebd 3a55 27be
00000160: a296 0ebd 8adc 663b 7d4a 453c bc82 1bbe
00000170: 8eed aabe 4fd8 debc 7d1a 943b 4ef8 b3bd
00000180: 4202 00be 8e3d 35bd 687c 87be 9653 bcbd
00000190: c6d4 123d ba86 68be 7f1c dabd 0fd3 34bd
000001a0: 1642 073d 24cd 1dbe 57e5 86bc 3648 8dbd
000001b0: 4a7b abbd d88f 7fbe d2bd 83bd b7e4 bfbd
000001c0: fb00 18be 4fd2 bdbd 5e46 42bd 4669 8fbe
000001d0: 122b f4bd e169 0bbe bd5b 81be 1d52 b7bc
000001e0: 58fa 29bd 3c5a 5dbd c1bc 84be f51b 91bd
000001f0: 1df7 3bbe a47c 043c 01d9 1ebe fd31 8ebd

mlp_1/MLP_0_1/hidden_1_1/Cast/ReadVariableOp:0 f4 [512, 256]
0.12906541 -0.18090877 0.07729259 0.2659278 -0.29525158 -0.13126406 0.0087251095 0.075026676
0.024130233 0.11271224 0.10541178 0.10752767 -0.043152917 0.0076606995 0.052828953 -0.042353645
0.04760743 -0.10201859 0.010161629 0.044051792 0.08571859 -0.010598164 -0.058655452 -0.14392447
-0.06466069 -0.06132664 -0.0820771 0.09844726 0.1409962 -0.06643129 -0.055233758 -0.0028786566
0.16062067 -0.014420214 0.03479136 -0.02347446 -0.027275758 0.098340936 -0.1348087 0.0047134003
-0.021472927 0.07882506 -0.03277531 0.18828435 0.08489888 -0.17128561 0.024751024 -0.11792515
0.11166312 0.0791942 -0.13361578 0.10490199 -0.20999445 0.012957673 -0.049159326 -0.0061283475
0.14573076 -0.082569525 0.18675232 0.039615456 -0.12529953 0.11278637 0.013727936 0.09359027
-0.16643478 -0.045084674 0.011604714 -0.14055026 -0.27169675 0.06784456 0.013354247 0.1252344
-0.013505812 0.06340884 0.049464013 0.06048894 -0.046696294 0.109507054 -0.08917534 0.0046364637
-0.071613625 0.18770507 0.033777457 -0.06866969 -0.06568858 -0.2055737 0.046537023 0.160792
-0.14396918 -0.009390317 -0.13700947 -0.12006986 0.08385733 0.083895504 0.05139637 0.11717482
-0.093211934 -0.0038287325 -0.005600933 -0.030278882 0.008944099 0.03614696 -0.27699873 -0.1696663
-0.055243105 -0.05399176 0.15916 -0.08947102 0.040060837 0.035076514 -0.1087971 -0.060583886
0.042109072 -0.04410236 0.0022742695 0.08343773 0.027337132 0.056640547 0.15366004 -0.057315078
0.027699726 0.080138884 0.079236105 -0.014393363 -0.24750096 -0.02293587 0.06985148 -0.018248493
0.16517285 0.026109194 -0.056840934 0.022307718 0.039575376 0.019723425 0.03579219 0.053336162
-0.037508823 0.12992871 0.07713166 0.14662024 -0.0926767 -0.04294319 -0.018162308 0.03706177
-0.07174001 -0.03946586 0.05828029 0.11582776 0.16200948 -0.12926286 0.0658342 0.064170875
-0.1039266 0.044462953 -0.07086746 -0.15189981 0.14409356 0.019083736 0.07995857 0.07984509
-0.033253018 -0.029740755 -0.02377976 0.022132117 0.14389323 -0.044049863 -0.06265302 -0.027317243
0.17906097 -0.043132223 -0.13397902 -0.06466862 0.004868261 -0.0037419067 0.016057504 -0.05767278
0.034880545 -0.05124594 -0.0012343924 0.17447735 -0.064544745 -0.0344384 -0.028943684 0.0938534
-0.008632251 -0.18493202 -0.05016421 0.041120365 -0.036144905 0.076000676 0.10710826 -0.1262486
0.08210489 0.046505723 -0.048160467 0.07564774 -0.00547911 0.055338766 0.08793643 0.09082175
-0.062478468 -0.046488434 -0.016252834 0.04514263 -0.018507207 0.00347033 0.02693484 0.127509
-0.0065791635 0.108040586 0.02142409 -0.059552427 -0.07805651 -0.06131286 0.018832287 -0.0826516
-0.005232961 0.014314283 -0.004626757 -0.06868549 -0.1438284 -0.13022341 0.023167066 0.011364149
0.00018211674 -0.13537693 -0.089761734 -0.16686207 -0.009618702 0.21001182 -0.11477616 -0.025766855
0.10506656 -0.117544204 -0.038968965 -0.027588693 -0.1427494 0.15104383 -0.07758674 -0.07802187
0.044406697 0.04158103 0.073762335 -0.024333974 0.14992394 0.04940444 -0.11231815 -0.19071183
-0.12446738 0.1950274 -0.046428975 -0.00986418 0.078370504 -0.0443716 -0.17961971 -0.05663077
00000000: b929 043e 2640 39be 944b 9e3d b027 883e
00000010: 372b 97be 166a 06be c3f3 0e3c 96a7 993d
00000020: c4ac c53c add5 e63d 22e2 d73d 7837 dc3d
00000030: 1dc1 30bd 9b06 fb3b 2c63 583d 047b 2dbd
00000040: 0200 433d 1fef d0bd f67c 263c a76f 343d
00000050: 3a8d af3d eca3 2dbc b340 70bd f060 13be
00000060: d36c 84bd a531 7bbd 0a18 a8bd b89e c93d
00000070: 4f61 103e 210d 88bd cb3c 62bd d8a7 3cbb
00000080: bf79 243e c342 6cbc 6381 0e3d 834d c0bc
00000090: 6971 dfbc f966 c93d 4b0b 0abe de72 9a3b
000000a0: fee7 afbc 086f a13d 673f 06bd 9dcd 403e
000000b0: 77df ad3d 7f65 2fbe a9c2 ca3c be82 f1bd
000000c0: a2af e43d 9230 a23d 93d2 08be dbd6 d63d
000000d0: c908 57be 6b4c 543c 4a5b 49bd 4ed0 c8bb
000000e0: 723a 153e 361a a9bd 003c 3f3e d143 223d
000000f0: 854e 00be 8afc e63d 23eb 603c 41ac bf3d
00000100: e16d 2abe b5aa 38bd b321 3e3c 68ec 0fbe
00000110: d61b 8bbe 17f2 8a3d c6cb 5a3c 723d 003e
00000120: 7b47 5dbc 7edc 813d c79a 4a3d 40c3 773d
00000130: 9d44 3fbd 3c45 e03d 90a1 b6bd 7aed 973b
00000140: 2aaa 92bd c235 403e 3b5a 0a3d b2a2 8cbd
00000150: bc87 86bd e981 52be 9b9d 3e3d a8a6 243e
00000160: a86c 13be d8d9 19bc 364c 0cbe 30e7 f5bd
00000170: 64bd ab3d 68d1 ab3d 0085 523d 5af9 ef3d
00000180: e6e5 bebd 79eb 7abb 0888 b7bb 6b0b f8bc
00000190: 458a 123c d60e 143d c7d2 8dbe 01bd 2dbe
000001a0: 9846 62bd 7726 5dbd d7fa 223e 953c b7bd
000001b0: d516 243d 64ac 0f3d 04d1 debd cf26 78bd
000001c0: 907a 2c3d ada4 34bd e90b 153b 67e1 aa3d
000001d0: 1ff2 df3c ebff 673d 0f59 1d3e 37c3 6abd
000001e0: 89ea e23c db1f a43d 8a46 a23d 24d2 6bbc
000001f0: e470 7dbe 01e4 bbbc 4b0e 8f3d dd7d 95bc
00000200: 1223 293e f3e2 d53c 0ad2 68bd adbe b63c
00000210: ca19 223d 0593 a13c d59a 123d 0577 5a3d
00000220: daa2 19bd 080c 053e 34f7 9d3d 9e23 163e
00000230: 48cd bdbd 33e5 2fbd 1fc9 94bc 15ce 173d
00000240: 6dec 92bd f4a6 21bd 50b7 6e3d 1b37 ed3d
00000250: d0e5 253e 7c5d 04be 15d4 863d 056c 833d
00000260: 78d7 d4bd c91e 363d f522 91bd a08b 1bbe
00000270: 438d 133e 7f55 9c3c 52c1 a33d d385 a33d
00000280: 5134 08bd e2a2 f3bc c5cd c2bc 6a4e b53c
00000290: bf58 133e a16d 34bd 3a50 80bd 69c8 dfbc
000002a0: c25b 373e 6aab 30bd cc31 09be fb70 84bd
000002b0: ef85 9f3b c73a 75bb 078b 833c 4b3a 6cbd
000002c0: e7de 0e3d 43e7 51bd 56cb a1ba 31aa 323e
000002d0: 0930 84bd 480f 0dbd 4e1b edbc 3636 c03d
000002e0: 496e 0dbc d25e 3dbe fd78 4dbd d46d 283d
000002f0: ae0c 14bd 3ea6 9b3d 935b db3d 5047 01be
00000300: 9c26 a83d c97c 3e3d e943 45bd 34ed 9a3d
00000310: 1b8a b3bb e7aa 623d 0418 b43d c100 ba3d
00000320: 6ce9 7fbd a86a 3ebd aa24 85bc 7ae7 383d
00000330: 6d9c 97bc 7a6e 633b 74a6 dc3c b891 023e
00000340: 0696 d7bb 6244 dd3d 9381 af3c 3fed 73bd
00000350: 17dc 9fbd 3223 7bbd 2b46 9a3c 3e45 a9bd
00000360: 4279 abbb 7486 6a3c 0d9c 97bb faaa 8cbd
00000370: c147 13be 4959 05be dcc8 bd3c b230 3a3c
00000380: 97f6 3e39 40a0 0abe 00d5 b7bd e4dd 2abe
00000390: c397 1dbc 570d 573e c30f ebbd 0315 d3bc
000003a0: 232d d73d 04bb f0bd ec9d 1fbd af01 e2bc
000003b0: e62c 12be 3cab 1a3e cce5 9ebd eec9 9fbd
000003c0: cce3 353d df50 2a3d b510 973d 0b58 c7bc
000003d0: a985 193e 4f5c 4a3d 0f07 e6bd f649 43be
000003e0: c1e8 febd 43b5 473e 4f2c 3ebd 5f9d 21bc
000003f0: b780 a03d ffbe 35bd 3bee 37be abf5 67bd

mlp_1/MLP_0_1/hidden_1_1/BiasAdd/ReadVariableOp:0 f4 [256]
-0.11309181 -0.27313063 -0.12757508 -0.064992264 -0.14051479 -0.017127557 -0.33407167 -0.2919571
-0.14150381 -0.014084729 -0.18775213 -0.058711566 -0.10069007 0.039250493 -0.043648988 -0.21607918
-0.11461946 -0.23779003 -0.15372771 -0.2738435 -0.20564514 0.029884882 -0.023875337 0.047733616
-0.061209057 -0.21669336 -0.14758046 -0.040403757 -0.046704616 -0.09004956 -0.06996524 -0.23977005
-0.108360656 -0.09097517 -0.0603448 0.052114513 -0.08571905 -0.09862381 -0.1711426 -0.23706721
-0.034780636 -0.14358908 0.09511954 -0.2940202 -0.108223915 -0.20054147 -0.19418202 -0.014564429
-0.2248938 -0.4302006 -0.071428426 -0.22277251 -0.10762065 -0.123417705 -0.12690346 -0.21295702
-0.15915142 -0.12322964 -0.32722133 -0.1697852 -0.05974882 -0.2046 -0.0123170875 -0.2742758
-0.2685827 -0.18972778 -0.312576 -0.23699732 -0.24834609 -0.072890155 -0.22200605 -0.20446268
-0.12922062 -0.17571826 -0.08529318 -0.17983149 -0.29073456 -0.23126437 -0.14547697 -0.06434694
-0.29069668 -0.03474001 -0.1528834 0.09891872 -0.03736672 -0.11594867 -0.17129686 -0.1515414
-0.071177505 -0.27093494 -0.16167973 -0.1516393 -0.10461891 0.033610024 -0.3315142 -0.23074716
-0.2807213 0.0020256296 -0.22027014 -0.0104348445 -0.11105432 -0.26353317 -0.18690772 0.013933396
-0.22927122 -0.2238364 -0.37190783 -0.06708499 -0.22112171 -0.3190541 -0.25694776 -0.024795141
-0.20914291 -0.2975264 -0.22777274 -0.114761755 -0.17206162 -0.15618004 -0.11268486 -0.22717859
-0.2996924 -0.15764245 -0.047381073 -0.22711608 -0.20986661 -0.14023206 -0.4003618 -0.25263295
-0.011872735 0.025022488 0.027900603 -0.0670261 -0.109798744 -0.25393555 -0.13227405 -0.08729814
-0.3321588 -0.14702208 -0.030726003 -0.16264084 -0.16557972 -0.11619665 -0.30755934 -0.30861905
-0.09387986 -0.24261479 -0.20887692 -0.05968982 -0.0035854275 -0.0177726 -0.11696227 -0.08036679
-0.24294265 -0.014474898 -0.19342671 -0.123850465 -0.1746108 -0.14595717 -0.16616856 -0.26556048
-0.2011024 0.01077282 -0.029393785 -0.019350585 -0.012177195 0.016985154 -0.010971843 -0.22462286
-0.080867626 -0.0985203 -0.045554526 -0.21473487 -0.22750978 -0.009968881 -0.2337467 -0.104267254
-0.11292106 -0.11450225 -0.25011703 -0.30136836 -0.23611255 -0.2553461 -0.09968932 -0.18022725
-0.33199388 -0.05123435 -0.08572704 -0.31938222 0.023018425 -0.13244106 -0.21290378 -0.21158457
-0.09326408 -0.16103466 -0.17169712 -0.08737044 -0.14516214 -0.12473636 -0.27170166 -0.10447788
-0.049477007 0.11254539 -0.3388957 -0.29392266 -0.11810794 -0.097443014 -0.33722737 -0.1778273
-0.14392439 -0.26380572 -0.3323955 -0.11737147 -0.17038043 -0.080883905 -0.3033913 -0.10124774
-0.26090643 -0.029631028 -0.1794105 -0.038732044 -0.03475001 -0.19134784 -0.12111239 -0.09882523
-0.27919897 -0.2544991 0.024157183 -0.106958 -0.053486697 -0.39306968 0.057273313 -0.10938981
-0.113610834 -0.22289766 -0.12439674 0.10138231 -0.09077791 -0.21661624 -0.18326828 -0.22811547
-0.23980972 -0.23858263 -0.12226125 0.12853442 -0.31741077 -0.117974214 -0.17504433 -0.022939581
-0.27632967 -0.14752555 -0.2408939 -0.07596471 -0.010750534 -0.0070173154 -0.35394973 -0.106104106
00000000: ae9c e7bd c7d7 8bbe 0ba3 02be aa1a 85bd
00000010: 1ce3 0fbe 174f 8cbc 710b abbe 677b 95be
00000020: 60e6 10be a3c3 66bc 1842 40be 8a7b 70bd
00000030: 9836 cebd 20c5 203d 48c9 32bd dc43 5dbe
00000040: 9cbd eabd 3b7f 73be cc6a 1dbe 3735 8cbe
00000050: a494 52be 24d1 f43c 3696 c3bc 5384 433d
00000060: 59b6 7abd dde4 5dbe 551f 17be 697e 25bd
00000070: 574d 3fbd e76b b8bd f049 8fbd 4886 75be
00000080: 31ec ddbd 3151 babd 1c2c 77bd 0776 553d
00000090: 788d afbd 48fb c9bd 0140 2fbe bfc1 72be
000000a0: 2476 0ebd 0409 13be 09ce c23d d189 96be
000000b0: 80a4 ddbd be5a 4dbe a7d7 46be a59f 6ebc
000000c0: 8f4a 66be 4143 dcbe 1149 92bd 7a1e 64be
000000d0: 3768 dcbd 6cc2 fcbd fbf2 01be 6811 5abe
000000e0: 97f8 22be d25f fcbd 8e89 a7be 2cdc 2dbe
000000f0: 2ebb 74bd aa82 51be 9ccd 49bc e16d 8cbe
00000100: ac83 89be 0048 42be f609 a0be 6daf 72be
00000110: 704e 7ebe 6f47 95bd 8e55 63be aa5e 51be
00000120: 6952 04be 7def 33be 31ae aebd bf25 38be
00000130: 29db 94be 91d0 6cbe eaf7 14be 54c8 83bd
00000140: 32d6 94be 8a4b 0ebd 778d 1cbe e695 ca3d
00000150: d90d 19bd 7f76 edbd 7268 2fbe ab2d 1bbe
00000160: 83c5 91bd fcb7 8abe 5f8f 25be 5547 1bbe
00000170: 7042 d6bd aaaa 093d 3bbc a9be fc48 6cbe
00000180: b4ba 8fbe 6dc0 043b 7f8e 61be e9f6 2abc
00000190: 7370 e3bd d2ed 86be bd64 3fbe e648 643c
000001a0: 13c6 6abe 5f35 65be b46a bebe db63 89bd
000001b0: bb6d 62be 0f5b a3be a88e 83be 2e1f cbbc
000001c0: 8f29 56be 6155 98be 423d 69be 3608 ebbd
000001d0: ec30 30be a9ed 1fbe 52c7 e6bd 81a1 68be
000001e0: 4871 99be 066d 21be a812 42bd 1e91 68be
000001f0: 46e7 56be fe98 0fbe 39fc ccbe 1b59 81be
00000200: dc85 42bc f6fb cc3c ce8f e43c fb44 89bd
00000210: 2ade e0bd d703 82be d972 07be 5ec9 b2bd
00000220: b810 aabe f58c 16be 19b5 fbbc 528b 26be
00000230: bb8d 29be 82f8 edbd 6b78 9dbe 5103 9ebe
00000240: 1644 c0bd 0370 78be d5e3 55be 507d 74bd
00000250: 7ef9 6abb d897 91bc ea89 efbd 5897 a4bd
00000260: f5c5 78be 1f28 6dbc a711 46be 50a5 fdbd
00000270: 2ccd 32be cc75 15be 1728 2abe 8bf7 87be
00000280: caed 4dbe 7b80 303c 3ccb f0bc 1e85 9ebc
00000290: dc82 47bc 7324 8b3c 3fc3 33bc 8903 66be
000002a0: ed9d a5bd 03c5 c9bd 6297 3abd 75e3 5bbe
000002b0: 53f8 68be 8454 23bc 4c5b 6fbe 128a d5bd
000002c0: 2843 e7bd 2880 eabd 570f 80be f44c 9abe
000002d0: 7dc7 71be b9bc 82be ea29 ccbd 7e8d 38be
000002e0: 1afb a9be 1cdb 51bd a991 afbd 1186 a3be
000002f0: 2391 bc3c a19e 07be 7303 5abe a0a9 58be
00000300: 3d01 bfbd 45e6 24be 5fd1 2fbe 46ef b2bd
00000310: 62a5 14be c775 ffbd 7b1c 8bbe 80f8 d5bd
00000320: 67a8 4abd 337e e63d bd83 adbe 087d 96be
00000330: 93e2 f1bd 3490 c7bd 11a9 acbe 5c18 36be
00000340: ea60 13be 8b11 87be be2f aabe 7460 f0bd
00000350: 3578 2ebe 76a6 a5bd 1b56 9bbe fa5a cfbd
00000360: 8795 85be c5bc f2bc 63b7 37be 7ea5 1ebd
00000370: 0756 0ebd b0f0 43be c609 f8bd e264 cabd
00000380: 2bf3 8ebe b54d 82be 49e5 c53c cc0c dbbd
00000390: de14 5bbd 6e40 c9be 6c97 6a3d c407 e0bd
000003a0: ccac e8bd 493f 64be b8c3 febd 87a1 cf3d
000003b0: c5e9 b9bd a6d0 5dbe aeaa 3bbe 1a97 69be
000003c0: ae90 75be 014f 74be 1b64 fabd 879e 033e
000003d0: aa83 a2be 779c f1bd d23e 33be caeb bbbc
000003e0: 157b 8dbe f010 17be e4ac 76be 6393 9bbd
000003f0: 0223 30bc 82f1 e5bb e638 b5be 1c4d d9bd

mlp_1/MLP_0_1/hidden_0_1/Cast/ReadVariableOp:0 f4 [48, 512]
0.20463444 -0.0069040265 0.06939956 0.14858906 0.16025087 0.13440473 -0.103686824 -0.2009363
0.096063614 0.11074474 0.295082 -0.107538 0.10927149 -0.08453662 -0.09784557 0.10144819
0.050204627 0.011454185 0.145729 -0.3398831 -0.37270796 -0.41089624 0.004753458 -0.18175507
-0.45546728 0.3801138 -0.27860177 -0.28268078 0.40443826 -0.0797593 0.2823649 -0.29409856
0.19748527 -0.08751918 0.24644347 -0.58579326 0.07011895 0.07371355 0.2247957 0.1885002
0.21883607 -0.109372884 0.050427627 -0.39369664 0.34522763 0.04979845 -0.27692875 -0.001354821
0.1482677 0.0692456 0.21563107 -0.17437658 0.10278624 -0.056583103 0.24389564 0.29319534
0.38649005 -0.48790604 0.2584799 -0.0060297814 0.12904909 0.123346455 0.08619773 -0.042554136
0.10442055 0.21369998 0.050376862 0.36186302 -0.19986501 0.15091425 -0.028671896 0.30515933
-0.03029115 -0.3603216 -0.30128852 -0.29268646 0.23234475 -0.29857278 0.48761117 0.0117470985
0.06710293 0.38891077 0.2115389 0.002083575 0.25624883 -0.20091422 -0.3416193 0.11454699
0.23540542 -0.31035787 -0.095594525 0.07567985 -0.3624627 -0.06743084 -0.16823232 0.27988634
0.45393363 0.07640092 -0.17797962 0.29622942 -0.21779355 -0.027761659 -0.103321604 0.035208892
-0.29620802 -0.008374816 0.39481977 -0.20010653 0.17678429 0.20734783 -0.05635202 0.27961162
0.025794331 0.13949744 0.24100806 0.112403184 0.121993005 -0.28005397 0.22524093 0.026044114
-0.12711994 0.016959768 0.15364484 0.2347489 -0.40264615 -0.2623824 -0.049208067 -0.14126019
-0.4201232 0.04934406 -0.47340244 -0.29172605 -0.039367348 -0.15557933 0.4492091 -0.15165892
-0.31934726 0.298957 0.081813015 -0.14693688 0.24447247 0.063627094 -0.07555742 -0.086153045
0.08857021 0.25932035 -0.081935465 0.15895611 -0.12461104 -0.24235018 0.29300213 -0.0370304
-0.18829599 0.020703211 -0.0899339 0.12352045 0.2337065 -0.12983584 0.077282764 0.2479353
0.16846398 0.16293162 0.32527584 0.09511278 -0.29010117 -0.21324581 0.1471579 0.5015722
0.22059529 -0.06653036 -0.05963792 -0.25462 0.10246397 -0.2306331 -0.08087851 0.023994625
0.36929503 -0.09524904 -0.009314679 -0.20459074 0.027418511 0.17973112 0.20724607 -0.2379266
-0.12831521 0.098399796 -0.048281796 -0.22718559 -0.05045397 0.37354773 0.35640636 -0.40490946
0.17427614 -0.23006713 -0.11819065 0.24175811 -0.38888726 0.20572606 0.19442177 -0.34857762
0.21009007 0.30375037 0.20942838 0.024326505 -0.17737076 -0.35935777 0.44882908 0.3412724
-0.16361353 -0.49424416 0.17626804 0.16405363 0.07712731 0.12976302 -0.1604156 -0.24574974
-0.15567595 -0.16311961 0.576614 -0.2475655 0.45984024 0.14713646 -0.00990639 0.39837244
0.23807603 0.0007046111 -0.1844773 -0.4366796 0.32159486 -0.24158725 0.08936469 -0.47702432
0.24865022 0.0682704 0.389588 0.31348726 -0.41255197 -0.172093 -0.04120901 0.24591222
0.12926848 0.22263043 0.48318157 0.30726066 -0.325475 0.44701767 -0.39655218 0.3680661
-0.06202914 0.22859958 -0.17275816 -0.40259862 -0.04444441 -0.343104 0.04540995 -0.25908118
00000000: b18b 513e 2c3b e2bb 5b21 8e3d bb27 183e
00000010: ce18 243e 65a1 093e c259 d4bd 3fc2 4dbe
00000020: 00bd c43d 23ce e23d fd14 973e e23c dcbd
00000030: bbc9 df3d 8921 adbd 4263 c8bd 12c4 cf3d
00000040: 5ea3 4d3d 55aa 3b3c fc39 153e 2805 aebe
00000050: 94d3 bebe fe60 d2be e5c2 9b3b 001e 3abe
00000060: 0233 e9be 479e c23e e4a4 8ebe 89bb 90be
00000070: 8812 cf3e d858 a3bd 2292 903e 1694 96be
00000080: 9439 4a3e 413d b3bd ad5b 7c3e 8cf6 15bf
00000090: 869a 8f3d 21f7 963d d830 663e 3206 413e
000000a0: 9016 603e e4fe dfbd 338d 4e3d 9b92 c9be
000000b0: adc1 b03e 76f9 4b3d 9bc9 8dbe 4094 b1ba
000000c0: 7dd3 173e a3d0 8d3d 64ce 5c3e c68f 32be
000000d0: 9881 d23d afc3 67bd c7bf 793e b31d 963e
000000e0: 06e2 c53e d2ce f9be 7a57 843e 7995 c5bb
000000f0: 7225 043e 119d fc3d 6f88 b03d 3f4d 2ebd
00000100: 71da d53d 2bd4 5a3e f857 4e3d 1c46 b93e
00000110: 6aa9 4cbe 4489 1a3e 53e1 eabc d83d 9c3e
00000120: 2525 f8bc 137c b8be 7d42 9abe 00db 95be
00000130: c8eb 6d3e 88de 98be 2ca8 f93e e776 403c
00000140: 436d 893d 501f c73e a79d 583e 968c 083b
00000150: 0c33 833e 75bc 4dbe bae8 aebe 9d97 ea3d
00000160: 1e0e 713e 3ae7 9ebe 10c7 c3bd 0afe 9a3d
00000170: b694 b9be 2e19 8abd 1845 2cbe 434d 8f3e
00000180: fd69 e83e 1678 9c3d 4a40 36be 62ab 973e
00000190: 4605 5fbe 6b6c e3bc 479a d3bd 3337 103d
000001a0: 94a8 97be 8636 09bc d125 ca3e bae8 4cbe
000001b0: f106 353e fd52 543e 60d1 66bd 4129 8f3e
000001c0: a24e d33c 6bd8 0e3e d1ca 763e a433 e63d
000001d0: 78d7 f93d 3c63 8fbe 8fa5 663e 775a d53c
000001e0: bb2b 02be 36ef 8a3c 1355 1d3e 0462 703e
000001f0: a327 cebe fc56 86be 668e 49bd 83a6 10be
00000200: 631a d7be ff1c 4a3d ce61 f2be 1e5d 95be
00000210: a83f 21bd 3050 1fbe bcfe e53e 7a4c 1bbe
00000220: 7c81 a3be e410 993e 958d a73d 9f76 16be
00000230: fe56 7a3e ec4e 823d d9bd 9abd 0271 b0bd
00000240: 4c64 b53d a3c5 843e c8cd a7bd 64c5 223e
00000250: 1334 ffbd a52a 78be 6004 963e 30ad 17bd
00000260: aad0 40be c899 a93c 442f b8bd 4af8 fc3d
00000270: c250 6f3e b0f3 04be 6d46 9e3d c0e2 7d3e
00000280: d281 2c3e 8cd7 263e 8e8a a63e 7dca c23d
00000290: 2488 94be 1c5d 5abe 8fb0 163e 0967 003f
000002a0: bbe3 613e 1241 88bd e446 74bd 8d5d 82be
000002b0: a1d8 d13d 152b 6cbe a2a3 a5bd 6090 c43c
000002c0: 3d14 bd3e ee11 c3bd 989c 18bc 3c80 51be
000002d0: c99c e03c 6f0b 383e 5038 543e 08a3 73be
000002e0: 1065 03be d585 c93d 22c3 45bd 57a3 68be
000002f0: d2a8 4ebd a641 bf3e e57a b63e 4b50 cfbe
00000300: 7275 323e b896 6bbe f10d f2bd 708f 773e
00000310: 3b1c c7be daa9 523e 8016 473e c478 b2be
00000320: da21 573e 2b85 9b3e 6574 563e 6148 c73c
00000330: aea0 35be befd b7be edcc e53e 42bb ae3e
00000340: 4e8a 27be 920d fdbe 9c7f 343e adfd 273e
00000350: ecf4 9d3d 99e0 043e fd43 24be d2a5 7bbe
00000360: 8469 1fbe d408 27be fa9c 133f cf81 7dbe
00000370: 2e70 eb3e f1aa 163e 694e 22bc 79f7 cb3e
00000380: 34ca 733e a7b5 383a 9ee7 3cbe 7894 dfbe
00000390: 15a8 a43e a662 77be d604 b73d 883c f4be
000003a0: 2a9e 7e3e 5ad1 8b3d 1478 c73e 6781 a03e
000003b0: 033a d3be 2639 30be c7ca 28bd 6ad0 7b3e
000003c0: f55e 043e 3bf9 633e 9363 f73e 4551 9d3e
000003d0: a9a4 a6be 80df e43e e308 cbbe 2973 bc3e
000003e0: 4412 7ebd 0216 6a3e 84e7 30be 6821 cebe
000003f0: 570b 36bd 54ab afbe c9ff 393d 4aa6 84be

mlp_1/MLP_0_1/hidden_0_1/BiasAdd/ReadVariableOp:0 f4 [512]
-0.29895222 -0.120940536 -0.54982895 0.032747604 0.14404392 -0.4519055 -0.16768157 0.048536047
-0.068390965 -0.22910216 -0.2508589 -0.14147155 -0.13499977 0.1777781 0.023696845 -0.11771137
-0.36565545 -0.08043205 -0.20439297 0.016751796 -0.20464677 0.009916177 -0.35309264 -0.07715228
-0.13685624 0.06278263 0.13277711 -0.2082243 -0.04951988 -0.20945305 -0.07721955 0.009337279
-0.2002879 -0.1927504 -0.09694209 0.029335175 -0.10425858 -0.12151803 -0.08967254 0.0488065
-0.17699483 -0.39356717 -0.1852984 -0.31960687 0.17019303 -0.14474726 -0.21735083 0.012302111
-0.43098933 -0.40099984 -0.34228802 -0.38171583 -0.31767774 -0.057929803 0.00042485946 -0.47592035
-0.23415166 -0.075103216 -0.23899549 -0.29661238 -0.4675258 -0.049083937 -0.04139327 0.092542216
-0.09922843 -0.2809467 -0.3016944 -0.08157447 0.0032651357 -0.13147332 0.026543848 0.098920606
-0.06432825 -0.23290405 -0.058596797 -0.069075935 -0.0033682033 0.12698407 -0.06944722 -0.11633396
-0.29258922 -0.1832209 -0.45619664 -0.007863626 -0.2389052 -0.50391376 -0.20706894 -0.024349974
-0.061716635 0.10334232 -0.2827086 -0.09289726 -0.009643451 -0.40014216 0.0054998 -0.39367744
-0.046819996 -0.13511206 -0.116118826 -0.15001155 -0.38619563 -0.1370573 -0.036297012 -0.18409897
-0.05491845 -0.22885972 -0.12460015 0.08807864 -0.47872782 -0.13249102 -0.1544661 -0.5793349
-0.1870713 -0.06895728 0.23494479 -0.3334868 -0.2609051 0.13073379 -0.0067391773 -0.2149254
-0.30451244 -0.16089012 0.0219898 -0.11406722 0.043974865 -0.32381654 -0.26140505 -0.32944435
-0.054039676 0.1683751 -0.1568731 -0.37817067 -0.25882927 -0.37560895 0.09475903 -0.13914685
-0.1558752 -0.0625885 -0.025602873 -0.108768314 -0.28720504 -0.1872623 0.08714783 -0.25930986
-0.32474336 0.112010196 -0.028395198 -0.095081516 -0.24507318 -0.3865176 0.14262305 -0.14359899
0.03913854 -0.057792414 -0.09885504 -0.37726668 -0.08566553 0.2221165 -0.4389091 -0.1448864
0.25781694 -0.13344531 -0.05936637 -0.18658294 -0.47373843 0.025665987 -0.33222643 0.10435314
-0.16569382 -0.16137831 -0.26451236 -0.08976311 -0.24628997 -0.38016516 -0.4550437 -0.053880803
0.10126331 -0.03813172 -0.12917769 -0.19273274 0.34578475 -0.010449652 -0.3055086 -0.08399733
0.3181428 0.0046916967 -0.27141148 0.160952 -0.113808535 -0.09005586 0.040070124 -0.03829944
0.038595963 0.1225084 0.05361607 -0.04876522 -0.16677807 -0.24531652 0.080233514 0.07191452
0.27194247 0.1967812 0.14292896 -0.22097668 -0.038034517 -0.18127964 -0.019194629 -0.4212211
0.0057890406 -0.24779008 -0.18084553 -0.1269117 -0.07815127 -0.2119586 0.01683859 -0.25580138
0.07103522 -0.10826975 0.12403699 -0.11431528 -0.15781173 -0.23110344 0.12753557 -0.13443953
0.019366566 -0.14767997 0.025029363 -0.036029894 -0.09868115 -0.20247194 -0.30639976 -0.09689323
0.16483039 0.07665958 -0.14546326 -0.31833324 0.03696955 0.06784054 -0.4076212 -0.12961224
0.1015044 -0.1762568 0.08678496 -0.35378817 0.066399425 -0.08321751 -0.07379675 -0.13724469
-0.52474356 -0.42740598 -0.10134048 -0.0031740065 -0.1205941 -0.1498333 -0.14824344 -0.23282464
00000000: 4410 99be acaf f7bd 97c1 0cbf 5a22 063d
00000010: 4080 133e 2860 e7be b8b4 2bbe bccd 463d
00000020: 9010 8cbd c299 6abe 9470 80be ebdd 10be
00000030: 613d 0abe 760b 363e e31f c23c a912 f1bd
00000040: 3137 bbbe 8fb9 a4bd 644c 51be 103b 893c
00000050: ec8e 51be 7677 223c 8fc8 b4be 0402 9ebd
00000060: 0b24 0cbe 2e94 803d b9f6 073e c038 55be
00000070: 5cd5 4abd dc7a 56be 4925 9ebd 63fb 183c
00000080: 4518 4dbe 5c60 45be 9389 c6bd 5250 f03c
00000090: 8685 d5bd 72de f8bd 3da6 b7bd 53e9 473d
000000a0: 223e 35be a381 c9be ddbe 3dbe 83a3 a3be
000000b0: 1547 2e3e a038 14be 3791 5ebe cb8e 493c
000000c0: a2aa dcbe da4f cdbe 6040 afbe 4270 c3be
000000d0: a8a6 a2be cd47 6dbd acbf de39 d5ab f3be
000000e0: 74c5 6fbe b7cf 99bd 3cbb 74be 94dd 97be
000000f0: 8b5f efbe 3d0c 49bd fd8b 29bd c686 bd3d
00000100: 4638 cbbd 3fd8 8fbe b077 9abe 8410 a7bd
00000110: e3fb 553b f1a0 06be 7c72 d93c e396 ca3d
00000120: 88be 83bd 667e 6ebe 3203 70bd af77 8dbd
00000130: 13bd 5cbb 1d08 023e 583a 8ebd 8040 eebd
00000140: 41ce 95be 429e 3bbe 9b92 e9be 70d6 00bc
00000150: 91a3 74be 7e00 01bf e109 54be 9979 c7bc
00000160: 95ca 7cbd 23a5 d33d 2ebf 90be eb40 bebd
00000170: 91ff 1dbc 6fdf ccbe ab37 b43b 1790 c9be
00000180: 53c6 3fbd d15a 0abe b5cf edbd a19c 19be
00000190: 6fbb c5be c058 0cbe 2dac 14bd 7184 3cbe
000001a0: 2bf2 60bd 345a 6abe 5d2e ffbd 9362 b43d
000001b0: d01b f5be baab 07be 5c2c 1ebe 4b4f 14bf
000001c0: 9e8f 3fbe 7939 8dbd 5e95 703e c8be aabe
000001d0: 5a95 85be 14df 053e 51d4 dcbb 6715 5cbe
000001e0: 0ee9 9bbe 61c0 24be f423 b43c 139c e9bd
000001f0: fd1e 343d 48cb a5be e2d6 85be eeac a8be
00000200: b558 5dbd 866a 2c3e 58a3 20be 969f c1be
00000210: 4585 84be d14f c0be 0611 c23d 837c 0ebe
00000220: c09d 1fbe 662e 80bd 1ebd d1bc ecc1 debd
00000230: 8a0c 93be b0c1 3fbe 907a b23d 43c4 84be
00000240: c344 a6be 9a65 e53d 0c9d e8bc 19ba c2bd
00000250: 77f4 7abe a3e5 c5be c70b 123e 9d0b 13be
00000260: bc4f 203d bdb7 6cbd 8374 cabd 1929 c1be
00000270: 6971 afbd 8272 633e b2b8 e0be 1a5d 14be
00000280: 9500 843e e3a5 08be 272a 73bd 990f 3fbe
00000290: d88d f2be 7a41 d23c 9519 aabe 19b7 d53d
000002a0: a4ab 29be 5b40 25be 2a6e 87be b9d5 b7bd
000002b0: 7033 7cbe 02a5 c2be 7dfb e8be 1eb2 5cbd
000002c0: 2363 cf3d 0230 1cbd 2847 04be bb5b 45be
000002d0: b30a b13e 0435 2bbc a06b 9cbe cb06 acbd
000002e0: 9de3 a23e cebc 993b 72f6 8abe 9ad0 243e
000002f0: 7314 e9bd 356f b8bd 9220 243d e0df 1cbd
00000300: cd16 1e3d afe5 fa3d 869c 5b3d 0abe 47bd
00000310: dfc7 2abe 4134 7bbe 7851 a43d eb47 933d
00000320: 0b3c 8b3e 0381 493e f85b 123e b647 62be
00000330: 15ca 1bbd 5fa1 39be 0e3e 9dbc 4baa d7be
00000340: feb1 bd3b afbc 7dbe 922f 39be 24f5 01be
00000350: c60d a0bd ad0b 59be 15f1 893c 66f8 82be
00000360: ea7a 913d 88bc ddbd 1b07 fe3d 211e eabd
00000370: 6699 21be 61a6 6cbe af98 023e 84aa 09be
00000380: a2a6 9e3c 6b39 17be 610a cd3c 1594 13bd
00000390: 5819 cabd ce54 4fbe 6ee0 9cbe f56f c6bd
000003a0: 4cc9 283e b3ff 9c3d 52f4 14be 93fc a2be
000003b0: 626d 173d fbef 8a3d bab3 d0be 12b9 04be
000003c0: 8ae1 cf3d aa7c 34be 50bc b13d b923 b5be
000003d0: 6cfc 873d f16d aabd c022 97bd df89 0cbe
000003e0: 9855 06bf f5d4 dabe 998b cfbd fe02 50bb
000003f0: 0afa f6bd e76d 19be 21cd 17be 9569 6ebe

ConstantFolding/mlp_1/truediv_recip:0 f4 [48]
1.4859004 4.354981 6.675329 1.259199 2.2635348 1.8449216 18.016573 22.064417
29.252165 10.532473 6.3011403 5.6801643 10.074459 6.186322 5.98702 8.678235
6.78912 5.6267962 10.432058 7.0001945 5.3029575 0.46587533 0.32895678 0.23683396
0.47560388 0.32189792 0.23821008 0.50332034 0.33271214 0.24599198 0.50674325 0.3369245
0.24186327 3.2983131 3.00581 1.6215539 3.2658372 2.890249 1.6889244 3.1291635
3.3701704 1.6748616 3.401844 3.3332243 1.6207942 1.2049466 3.4675725 1.8735907
00000000: fc31 be3f 015c 8b40 4c9c d540 6f2d a13f
00000010: c1dd 1040 6426 ec3f f121 9041 ed83 b041
00000020: 6f04 ea41 0285 2841 f1a2 c940 e8c3 b540
00000030: fc30 2141 5af6 c540 ab95 bf40 0dda 0a41
00000040: 7940 d940 b70e b440 b6e9 2641 9801 e040
00000050: d4b1 a940 3687 ee3e 066d a83e 9a84 723e
00000060: 5a82 f33e cecf a43e 58ed 733e 9ad9 003f
00000070: 3f59 aa3e 52e5 7b3e edb9 013f 5e81 ac3e
00000080: 01ab 773e 9017 5340 315f 4040 148f cf3f
00000090: 7a03 5140 d7f9 3840 ad2e d83f 3744 4840
000000a0: dfb0 5740 dd61 d63f d0b7 5940 8c53 5540
000000b0: 2f76 cf3f b13b 9a3f b5ec 5d40 d2d1 ef3f
