mujoco_playground/mujoco_playground/experimental/sim2sim/onnx/go2_policy_no_lin_vel.onnx (onnx, 766748 bytes, 10 tensors)

mlp_1/sub/ReadVariableOp:0 f4 [45]
00000000: ee26 7cba d9cc 0bba 21ce 21ba f355 b53b
00000010: 54bd c736 bf7c 7fbf fa10 75bd e1dd 193d
00000020: 0d59 babd f405 663c 4ec0 533d 9c9b a6bd
00000030: 6e50 ffbd ec72 643c 9cec 03be 8bad 683d
00000040: a4dd 023c ce10 c3bd 3306 9abb da15 a33c
00000050: b779 92bd 9e15 aa3b 4595 493c 79f6 3fbd
00000060: 8259 cabb fcd4 8eba 7126 1abd d8a0 d13b
00000070: bc9e 073c 88ff 86bd 82eb 72be 384f 053d
00000080: 4f8b 243e 570e 153e 9505 7a3d bc28 163e
00000090: 0bdf b6be ef7e b13d 609e ef3d dcab 753e
000000a0: 5a5a 6d3d f982 113e 4ed3 f4b9 c0d4 ab39
000000b0: 1ba4 173b
-0.0009618838 -0.0005332954 -0.0006172378 0.0055339276 5.952703e-06 -0.9979972 -0.059830643 0.037565116
-0.09099016 0.014039505 0.051697068 -0.08135149 -0.124665126 0.013943415 -0.12883228 0.05680613
0.007987414 -0.095246896 -0.004700446 0.01990788 -0.071521215 0.0051905653 0.012303655 -0.046865914
-0.006175221 -0.0010897215 -0.037634317 0.006397348 0.008277591 -0.065917075 -0.23722652 0.032546252
0.16068767 0.14556251 0.06104048 0.14663976 -0.35717043 0.08666789 0.117001295 0.2399134
0.057947494 0.14210118 -0.0004669674 0.00032774173 0.0023138586

mlp_1/MLP_0_1/hidden_3_1/Cast/ReadVariableOp:0 f4 [128, 24]
00000000: 8319 343c 9a34 5ebd ee85 b43d 684a b6bb
00000010: c9e1 d43d 0609 30bd 043e 38bc 323b 473d
00000020: 5b45 07bd c11c d43d 8ff3 00bd 1690 553d
00000030: b63b a8bd edd6 0bbd 8c47 64bc afc2 c7bd
00000040: 9f85 a1bd 70b7 cebd c652 e2bd 5b3b 6abd
00000050: 872e d6bd 1ec6 b03c 27c8 b2bd 2b76 c8bc
00000060: 8e95 d43c 2b3f 0c3d d790 0c3d 4406 09bd
00000070: b09e 14bd dd07 303d d615 52bd 51a1 c7bc
00000080: 5132 6fbc 7ba7 a53d e959 c83d 6b8d a43d
00000090: ae8d 06bd 4abe 4b3c 1e9b 2f3d acb4 9d3c
000000a0: 01a2 db3c 76a1 08bc c79c 9b3d 0a92 7fbd
000000b0: 9ada fe3c b952 0b3e 0c48 cc3d 0616 2c3d
000000c0: cf82 673d 24b1 873d d412 07be e570 bebd
000000d0: 0de7 a1bb 6638 3d3d 0343 653d 21a5 06bd
000000e0: fdee 37be b206 a43c 18ef 023d 0c72 aebd
000000f0: 69e3 703d 146b cd3d ade8 d23c 34d4 613e
00000100: 634c 333e 36ab 373e f0a9 3e3e 7fe3 673d
00000110: 6679 643c 4460 d53d 2b54 e7bc dc1c e33d
00000120: af28 c1bd 342b 7b3d 177c fbbb ea56 813d
00000130: b702 033e f5b8 f4bd 94f3 093d c33f 2a3d
00000140: 4322 c53d 37d7 f93c 7e7e d6bd a8e4 aebd
00000150: e7c6 953e c92a 0d3e 6564 4c3e 9206 1c3e
00000160: ef68 ecbc 7e29 dc3d ff03 0f3e a0c4 323e
00000170: 0168 053e 574e 663e 3504 603e 14a3 0c3e
00000180: e4f8 c7bb be0c 70bd 8331 5cbd 7437 3a3b
00000190: 1b98 cd3b 91c9 073e 31d1 2ebb 35f6 cf3c
000001a0: 5da4 a73d 3e47 8dbc 6770 89bc 8039 d43c
000001b0: 47a0 7abd e7be 903a 4124 16bd 639e a23c
000001c0: 4b5f 07bc 2948 433e 2baa adbc d95a 043d
000001d0: 5abb 5c3e e20f 943c 176a 5039 645e 78bd
000001e0: e05e 96bd 1686 03bd a9a6 a0bd 031b dd3d
000001f0: 8426 15be c7c6 3a3d 58f5 d73c b555 223d
00000200: 3af4 8cbd e636 743c 1a76 873d a1d4 513d
00000210: 209c 693e 5a94 173d 02ea 023e 1926 823e
00000220: 9a66 733e 4e6d a23d e4d9 583e b69a 363e
00000230: fb7d fb3d ba68 0f3e 8602 3d3e 718d 143e
00000240: 0de9 c83d 852e 9cbd eae6 6c3d fddb 60bd
00000250: c41d ddbd 9443 48bc 245a 16bc ebad dcbd
00000260: ec55 293d 03b4 64bd fcc8 cb3d d960 443d
00000270: 3c0a 2d3e 7478 7f3e 5679 f53d 3105 2a3e
00000280: cc62 2f3e 007d 6e3e ffcc 2e3e daed 383e
00000290: 6756 ec3d 66b5 3d3e 9678 8e3e 16ee 9c3c
000002a0: a2e0 023d 7158 d5bc 0146 19be 66bc ae3d
000002b0: 857c c13d 4f94 893b 2ddd 81bd 97fd 3abd
000002c0: 0538 80ba a0eb 05bd 86fe 2b3c 8c7b e5bd
000002d0: e49a 2b3e 4210 6f3e aae0 db3d 74b3 283e
000002e0: cb3b 423d d093 243e 9ca3 423e 6d92 b83d
000002f0: 6a7a 013e 539d 213e 05e6 953e b392 5c3e
00000300: fcf3 0fbd 3f69 0c3d ac1f 373e 3b0b 35bd
00000310: 782a d1bb e421 d1bc 7858 613d 6903 9dbd
00000320: 8a45 44bc 5d40 f43c e3ac 2a3d 16fd 623e
00000330: 5f63 e8bd c404 023d 785b 153e 2797 11bc
00000340: 65e6 bdbc fbfb d43c fc08 cabc d01c 0bbc
00000350: 8789 66bc 1ca0 99bd 387d 45bd 4479 413e
00000360: 31f2 ea3b 0ab3 1dbe ef4d 80bd 68c5 9ebc
00000370: 4c5d e4bc 3499 25bd d034 ac3c b018 03bd
00000380: 415e 82bc 0fff c5bc e6c0 d2bd c255 473c
00000390: 8007 07be 63b1 95bc 88a8 41bd 2b91 85bd
000003a0: 0240 143d 9d9a d3bd 227d 66bd e10b c8bc
000003b0: e7a5 53bd e464 b1bd affb 623d 88d0 683b
000003c0: 76fd 953b eb76 13bd 8f11 3c3e 0c8d 363c
000003d0: fb30 3b3d ce26 5abc 73a2 88bc c4cc f93b
000003e0: 0fd8 72be dceb 533b d455 cdbc c56d 213e
000003f0: 4db2 58bd 251f 313d b4d9 193e f7f0 4ebd
0.010992411 -0.054249384 0.088146076 -0.005563069 0.103946276 -0.042977355 -0.011245254 0.048640437
-0.033025127 0.10357047 -0.031482276 0.052139364 -0.08214514 -0.034140516 -0.013933074 -0.0975393
-0.07886814 -0.10093582 -0.11050944 -0.057185512 -0.10458093 0.021578845 -0.08729582 -0.02447041
0.02595022 0.03423993 0.034317818 -0.03345324 -0.03628415 0.04297625 -0.051290356 -0.024368914
-0.014599399 0.08088585 0.09782774 0.08034786 -0.03284996 0.012435505 0.04287254 0.01925119
0.026810648 -0.008339277 0.07598262 -0.062395133 0.031110097 0.13605775 0.09974679 0.04201319
0.056521233 0.06625584 -0.13190776 -0.09298877 -0.0049408735 0.046196364 0.05597211 -0.032872323
-0.1796226 0.020022724 0.0319663 -0.085178465 0.058810625 0.10030189 0.025745714 0.22053605
0.17509608 0.17936406 0.18619514 0.05661344 0.013944959 0.10418752 -0.028238377 0.11089489
-0.09431588 0.0613205 -0.007674705 0.06315406 0.12794004 -0.1194934 0.03367956 0.041564714
0.096256755 0.03049813 -0.10473345 -0.085397065 0.29253313 0.13785852 0.19960172 0.15236881
-0.02885863 0.107501015 0.13966368 0.17457819 0.13027956 0.22490822 0.21876605 0.13734084
-0.006102668 -0.058605902 -0.053758156 0.00284144 0.006274236 0.13260485 -0.002667498 0.025385955
0.08185647 -0.017245885 -0.01677723 0.025906324 -0.06118801 0.0011043221 -0.03665567 0.019850915
-0.008262466 0.19070496 -0.021199306 0.0323132 0.21555844 0.01807398 0.00019875947 -0.060636893
-0.07342315 -0.032110296 -0.07844288 0.10796168 -0.14565474 0.045599725 0.026362106 0.039632518
-0.0688252 0.014905667 0.06614323 0.05122817 0.22813463 0.037006713 0.1278458 0.2541969
0.23769608 0.079310045 0.21176869 0.17832455 0.12279888 0.14004794 0.18457994 0.1450708
0.09810076 -0.076260604 0.057837404 -0.054897297 -0.10796693 -0.012223143 -0.009176765 -0.1077536
0.041341707 -0.055835735 0.09950444 0.047943924 0.16898435 0.24948293 0.119860336 0.16603543
0.17127532 0.23289871 0.17070387 0.18059483 0.115399174 0.1852623 0.27826375 0.019156497
0.031952508 -0.026043149 -0.1496811 0.08532028 0.09447578 0.004198588 -0.06341014 -0.045652
-0.000978232 -0.032695413 0.010497695 -0.11205205 0.16758305 0.23346046 0.10736211 0.16474706
0.047420304 0.16072011 0.19007725 0.090123035 0.12644354 0.1578267 0.29277053 0.21540336
-0.03514479 0.034280058 0.17883176 -0.044200163 -0.0063832365 -0.025528856 0.05501601 -0.07666666
-0.01197947 0.029815847 0.041668784 0.22166857 -0.113470785 0.031742826 0.14585674 -0.008886135
-0.02318115 0.02599906 -0.024662487 -0.008490756 -0.014070875 -0.075012416 -0.04821512 0.18893915
0.0071699847 -0.15400329 -0.06264865 -0.01938124 -0.027876519 -0.04042931 0.021021277 -0.032005966
-0.015914084 -0.024169473 -0.10290699 0.012166442 -0.13186455 -0.018273061 -0.047279865 -0.06521829
0.036193855 -0.103322245 -0.05627168 -0.024419727 -0.05167189 -0.086618215 0.055415805 0.0035524685
0.004577334 -0.03600208 0.18366073 0.011142027 0.04570101 -0.013314916 -0.016679024 0.007623287
-0.23715232 0.0032336628 -0.02506534 0.1576453 -0.052904416 0.043242592 0.15024453 -0.05052277

mlp_1/MLP_0_1/hidden_3_1/BiasAdd/ReadVariableOp:0 f4 [24]
00000000: bee4 f8bc 1890 8fbc ed4e 083d fac8 aa3c
00000010: 5921 3d3b 29c4 a73d a623 eabc 7f58 0e3d
00000020: 96d6 6a3d f2c1 213d 947e 0c3d 4c86 8c3d
00000030: 1665 c6be d39c 2fbe 4b92 76be a540 babe
00000040: e98b 41be 35a0 34be 07c8 bcbe 23cb 8abe
00000050: 9b00 3ebe 0483 b3be 9431 7fbe 254a 61be
-0.03038251 -0.017524764 0.033278394 0.020847786 0.0028858988 0.081917115 -0.028581452 0.034752365
0.05733355 0.0394916 0.0343004 0.068615526 -0.38748997 -0.17149667 -0.24079244 -0.36377445
-0.18901028 -0.17639239 -0.3687136 -0.27108106 -0.18554918 -0.35060894 -0.24921256 -0.2200094

mlp_1/MLP_0_1/hidden_2_1/Cast/ReadVariableOp:0 f4 [256, 128]
00000000: b9c9 13bd 8514 87bd a9a6 86bd 99c6 57bd
00000010: c55e 4f3d f0de 043e d0a6 14bd 5efe 17bd
00000020: c53b 7f3d f475 c53c 7429 843d b46a 013e
00000030: 830b 32be d283 f7bc dca3 ccbd f8fa 98bc
00000040: 989e b1bd 0aef c43c 6a9d febd 22ae fc3d
00000050: e78b 003e d29e 90be dc9f fe3c 1242 0d3e
00000060: b7e1 8d3d 7775 45bc 507c 2fbd 8ccc 46bd
00000070: 8e51 33bd e09c 4e3c b2e6 c7bd 6ab7 a03d
00000080: 2730 9d3d 8937 ebbd 72f8 a43c 536c 26be
00000090: da2a 85bd ca43 e5bc 5e40 4fbd eac6 fb3c
000000a0: 1993 113d d5a1 113d 115b b5bd c3ad 753d
000000b0: aca1 0e3c 12fe c5bd 313f 0abe d18b efbd
000000c0: ecc5 febd 8b74 08be b839 0fbd 7bea 5d3c
000000d0: cc0c 82bd e379 563d 4766 f83d de58 473c
000000e0: 64e1 95bd 50ca bdbd 664e adbc 345c e23d
000000f0: 354c c93d 21d2 3a3e 1603 c1bd bbb3 45be
00000100: 9848 9d3d deb6 973d d584 11be 60c8 833d
00000110: 5658 1dbd fa9b 7cbc 0bf3 023e 1c70 a4bd
00000120: ef4a 30bd 7454 283d 2f32 6ebe 8677 93be
00000130: 7ec3 663d 0d4f 963d 3b6a 09be ee84 2c3e
00000140: 7ff2 253e 8d0e cdbd 3cc3 5cbd ce89 6b3d
00000150: 8ff2 5c3d 7aa6 cc3d f38e 60bc 49a5 5fbc
00000160: 6369 28bb 6035 f6bd 578f 69bd ada5 0dbd
00000170: 368d 0dbe d387 f13d ff85 d83c 5ec5 083d
00000180: ac8f d9bd 36c0 993d 6d0a 5c3d e8ef d0bc
00000190: 37f4 403e 8c0b c2bb ea22 24bd 40b7 83be
000001a0: f272 70bd 1ab6 d4bd 5c5c f8bd 9fae 01be
000001b0: 32d8 8e3d e2b4 4fbe a7dc 7ebe 9603 0f3e
000001c0: 9b90 8fbb 0599 ed3c 5689 cf3d cf11 ac3b
000001d0: 5b15 54be ed7a 523d 1919 98bd 0aec 283d
000001e0: 53c3 7d3d 3749 d6bd 3134 6bbd 4711 09bc
000001f0: ba15 99bd cc87 6f3d b992 ebbd 93b8 90be
00000200: 3970 843d 8b77 253d dfe9 803d 5a98 ab3d
00000210: ea19 c13a 4a4c 313e 8144 3c3b c541 c8bd
00000220: 393f d73d 3e9c 2fbd 1ba1 813e a039 89bc
00000230: 7e5f 6fbd e16d b73c 8305 683c 013d 0f3d
00000240: a1b5 a53e 6f3c e7bc c8ae 193d 01c4 b13e
00000250: 945b b8bd 98f9 a9bd a3ce 753d 2221 c03d
00000260: f4ee b73d b1dd 633d f8a9 82bb 62cf 16bd
00000270: 011e 2b3d f872 983d 5ffb eebc 4b96 723d
00000280: 27fe 95bc 010f 033e 6172 b0bd fac4 27bd
00000290: c39a f4bd 89d2 8abc 21c0 1c3e f5cf c63d
000002a0: 436b e93d 1b54 25bd 340d 1e3d 65fb 123d
000002b0: ec28 163e 1d43 b0bd b7d4 9ebd 5fdf bb3b
000002c0: 103e 123e 21ce 133e 65aa b63d 310b 2ebe
000002d0: 16f7 453e c673 153d 9e8d bb3d 7e51 653d
000002e0: 6915 d93d 7c31 553e f350 07be a1b6 973b
000002f0: c2a7 50bd 253e d0bd 47f6 93be a926 623e
00000300: ef41 a93c 32fd c6bd b394 e03d ef3e 0bbe
00000310: 861b 60bd d486 b73b f943 ae3d 91ca 533e
00000320: 7e9a c83d fa38 4f3e 0e78 2fbd d93b 08bd
00000330: 6f25 e7bd f9bb 8c3e ee4e c43c 9423 c53a
00000340: bf63 1d3d 9abb d63c 6392 da3d 8eaf a0bd
00000350: e617 3bbc cdb9 2bbd 0fb2 0d3e 1559 793d
00000360: 742b 173e 503b c8bd 63ca 52bd a29d b43d
00000370: ee07 dbbc 7a66 c33d 53bf 45bd 107a a3bc
00000380: ebd3 ab3d cab5 2c3e 7e33 ac3d cbec 283d
00000390: 24d8 773d 77ec 4a3d 89a1 8c3d 6048 c23d
000003a0: b880 c8bd c8a6 863d fedc 003e 1701 583c
000003b0: 4946 3fbd 2e66 e7bc 031d 95bd ec28 18bd
000003c0: d6de f83d 7e49 303e 5a64 85bd 99c9 f03d
000003d0: ef14 9c3c 7147 933d 1353 7b3c 11f9 94bc
000003e0: e698 8b3d a43a ae3c c530 973c 09ed 1b3e
000003f0: fce0 9e3c c42f 86bd 9775 a13e 4f95 d4bd
-0.03608105 -0.06595711 -0.06574757 -0.05267963 0.05062749 0.12975669 -0.036291897 -0.037107818
0.06231286 0.024104096 0.06453219 0.1263836 -0.17387204 -0.030214224 -0.09992191 -0.018674359
-0.086728275 0.024039764 -0.12432368 0.12337901 0.12553369 -0.2824617 0.031082086 0.13794735
0.06927817 -0.012051932 -0.042843163 -0.048534915 -0.04377895 0.012610644 -0.097607985 0.078474835
0.076752 -0.11485202 0.020138 -0.1625226 -0.06502314 -0.027986426 -0.050598495 0.030734498
0.035540674 0.035554726 -0.0885526 0.059980165 0.008705538 -0.09667601 -0.13500668 -0.1169659
-0.12440094 -0.13325708 -0.034967154 0.013544674 -0.06350097 0.052362334 0.12128883 0.012167184
-0.073183805 -0.09267104 -0.021155547 0.110527426 0.098289885 0.1824422 -0.09424417 -0.19306843
0.07679862 0.07407926 -0.14210828 0.06434703 -0.03841432 -0.015418047 0.12788026 -0.08029196
-0.043040212 0.041096166 -0.23261331 -0.28802127 0.05633878 0.073392965 -0.1341943 0.16847584
0.16205786 -0.10012541 -0.053897128 0.057504468 0.05394226 0.099926904 -0.013705957 -0.013650247
-0.002569758 -0.12021899 -0.057021465 -0.03458183 -0.13823399 0.117934845 0.026431082 0.03339135
-0.10623106 0.075073645 0.05372088 -0.025505021 0.1884316 -0.0059217867 -0.04007236 -0.25725746
-0.05870337 -0.103862956 -0.12126991 -0.12664269 0.0697483 -0.20283845 -0.2488886 0.13966212
-0.004381252 0.02900363 0.101336166 0.0052511464 -0.20711271 0.051386762 -0.07426662 0.04124073
0.061953854 -0.104631834 -0.05742282 -0.008365936 -0.07474847 0.058479115 -0.115025945 -0.2826582
0.06466717 0.04039721 0.06294607 0.08378668 0.0014732454 0.17314258 0.0028727355 -0.097781695
0.10510106 -0.042873614 0.25318226 -0.01675111 -0.058440678 0.022391262 0.01416147 0.034970287
0.32365134 -0.02822706 0.0375202 0.34719852 -0.09001842 -0.08299559 0.060011517 0.093813196
0.089811236 0.055631343 -0.003987547 -0.03681887 0.04177666 0.074438035 -0.029172597 0.05922536
-0.018309666 0.12798692 -0.08615566 -0.040959336 -0.11943581 -0.016946094 0.15307666 0.097076334
0.11397412 -0.040363412 0.03858681 0.03588428 0.14664048 -0.08606551 -0.07755416 0.005733415
0.14281487 0.144341 0.08919219 -0.16996457 0.19332537 0.036487363 0.09157871 0.05598592
0.10599787 0.20819658 -0.13214473 0.0046299254 -0.050941236 -0.10168103 -0.28898832 0.2208506
0.020661322 -0.09716262 0.10965862 -0.13598226 -0.05471375 0.0056007896 0.085090585 0.20682742
0.09795092 0.20236579 -0.042839102 -0.0332602 -0.11286437 0.27487162 0.023963418 0.001504051
0.038425203 0.026212502 0.10672452 -0.078459844 -0.011419272 -0.04192524 0.13837455 0.06087597
0.1476267 -0.09776938 -0.051462542 0.088191286 -0.02673718 0.0954103 -0.048278164 -0.019955665
0.083900295 0.16866222 0.08408259 0.04124145 0.060508862 0.049541917 0.06866748 0.09486461
-0.09790176 0.0657478 0.12584302 0.013183854 -0.04669789 -0.028246965 -0.07280924 -0.0371484
0.121518776 0.17215535 -0.06513281 0.11757202 0.01905295 0.07191361 0.015339631 -0.01818517
0.068162724 0.021268196 0.018455872 0.1522714 0.01939439 -0.06552079 0.31535026 -0.10380041

mlp_1/MLP_0_1/hidden_2_1/BiasAdd/ReadVariableOp:0 f4 [128]
00000000: a185 3fbc 2a73 2ebd e299 53be 1010 5dbe
00000010: a191 6ebd 105b 61be 91c0 5cbe aee7 a1bd
00000020: cc0c d2bb 10ec bcbb 53cf 74bd 8998 96bb
00000030: 5f10 45bd d03e 523d 17bd 8dbd cf29 48bd
00000040: 6bb0 5abe e2bf 95bd 8167 cbbd c013 9dbe
00000050: 0428 b63c ef49 13bd 310d 59be 11e1 78be
00000060: 25eb 15be 0681 0c3c 6dc2 88be 27bd 1cbe
00000070: 51c9 8bbd c21b 75be 8ca5 00ba 4e0a 34bd
00000080: e527 f3bd 0193 cfbc 9df9 d9bd 8062 a1bd
00000090: e567 c13c abe4 eabc 7ad6 3fbd 607a 89bd
000000a0: 8d50 5abd d697 a2bd 655e cdbd 8481 5cbd
000000b0: e740 f03a 21e5 94bc bf7f 56be 7566 74be
000000c0: 3312 79be a7a3 f6bc 0fa9 a7bc 074e cbbd
000000d0: 5b72 23be 7ad7 48be 3a95 84be 7181 c0bc
000000e0: 59e7 1a3d d3c2 e5bd 753d 84bc 4d44 8cbe
000000f0: afd4 0ebd 127b a0bc a86a 333d 4a2a 3fbd
00000100: 5b3a 60be aec4 9dbd 8db5 cdbc 2bfc cabd
00000110: eac4 04bd f841 18be b4ef 5cbd 0117 d0bd
00000120: 48d5 78be 77e6 3dbd 7df0 a5bd 7a98 88be
00000130: c147 96be 7c1f 92be ae97 31bd 6185 a4bd
00000140: 7472 c03c d250 cbbb 28bc 31be b2e8 68be
00000150: e6e3 18be 9b31 c0bd 9243 adbd af12 01be
00000160: 76f1 ffbd f585 cfbc 42e1 373d 85a0 e8bd
00000170: 6cb9 7dbe 6c0d 2bbd e3d7 e03c af2f 5fbe
00000180: 0c25 debd 3483 5d3b eaca acbd e6c9 03be
00000190: 8406 bbbd f40e 44be c7dc 64be 6013 00bd
000001a0: 952b 313d ceaa c0bc 319d ed3b 3943 4dbd
000001b0: 3223 05bd 9307 4fbe b2cb fdbd 0e2b 80be
000001c0: fca1 7dbe fb9e 34be 3539 04be b70d 65be
000001d0: 02e7 76be c740 92bd c9f4 90be a524 1bbd
000001e0: 5417 0cbe 26c8 44bd 044c 63be 2068 77be
000001f0: edbb e1bb b6cc 5539 211b 22be 235d 1cbb
-0.011689574 -0.042590298 -0.2066417 -0.21588159 -0.05824435 -0.22007394 -0.21557833 -0.079055175
-0.006410217 -0.0057654455 -0.059768032 -0.0045958203 -0.048111316 0.051329434 -0.06920832 -0.048867997
-0.2135636 -0.07311989 -0.09931851 -0.3067913 0.022235878 -0.03595918 -0.21196438 -0.24304606
-0.14640482 0.008575683 -0.26710835 -0.15306531 -0.068255074 -0.2393637 -0.0004907481 -0.04395514
-0.11872844 -0.025338652 -0.10643313 -0.078801155 0.023609111 -0.02867349 -0.0468354 -0.06712794
-0.053299475 -0.07939117 -0.1002777 -0.053834453 0.0018329889 -0.018175663 -0.20947169 -0.2386721
-0.24323349 -0.030107332 -0.020466356 -0.09926992 -0.15961592 -0.19613448 -0.258951 -0.023499222
0.037818287 -0.112188004 -0.016142586 -0.2739586 -0.0348708 -0.019589934 0.043802887 -0.04667119
-0.21897261 -0.07703529 -0.025110984 -0.099113785 -0.032414354 -0.14868915 -0.053939536 -0.10160638
-0.2430011 -0.046362367 -0.0810251 -0.2667883 -0.2935162 -0.28539646 -0.043357544 -0.080332525
0.023492076 -0.006204703 -0.17356932 -0.22745016 -0.14930686 -0.093844615 -0.08460154 -0.12604783
-0.12497227 -0.02533243 0.044892557 -0.11358742 -0.24777764 -0.041760847 0.027446693 -0.21795534
-0.1084691 0.0033800127 -0.0843714 -0.12869987 -0.09132102 -0.19146329 -0.22349845 -0.031268477
0.043254454 -0.023518946 0.0072514047 -0.050112937 -0.032504268 -0.20217733 -0.123923674 -0.25032848
-0.24768823 -0.17638771 -0.12912448 -0.22368513 -0.2411156 -0.071412615 -0.28311756 -0.037876744
-0.13680774 -0.04804244 -0.22196966 -0.24160814 -0.0068888576 0.00020389524 -0.15830661 -0.0023859225

mlp_1/MLP_0_1/hidden_1_1/Cast/ReadVariableOp:0 f4 [512, 256]
00000000: 3d38 2b3e dd78 79bd f68d 58be 4de3 ac3d
00000010: 6811 db3a 6634 0cbe 43b2 01bd 61ea 0dbd
00000020: 407f 83be f797 cdbd 379a 9dba 65c0 233d
00000030: cd67 38bd 3578 2abe af4c 443d 6ce5 57be
00000040: a09a 3c3d d6d0 013d 7f27 0abe 28da 5fbd
00000050: 15ab dabd 2261 ff3c a4b5 33be 1c42 7c3b
00000060: fe4d 2cbd e5b1 173c 9dc3 8c3c 806b 63bc
00000070: 02c5 56bc 6f61 ebbd 226c 04bd 53bb 14bc
00000080: 92a3 3abe 8c0e febd cacb 4abc f444 25bc
00000090: c6e0 d4bd 5b61 52bd 703f 013e 076c eabd
000000a0: 6867 20be 66ec 993c 2225 a83d 0c15 053d
000000b0: efa7 0abe cadf e63d febb 01be 7048 35be
000000c0: 9859 f7bd 3315 e7bd 0a47 21be 4cc5 0b3d
000000d0: 3e64 65bd e05d 5abe 040e a4bd 5827 0abd
000000e0: 70d4 58bd 8006 f1bd b223 e8bd fd76 edbd
000000f0: 5bde ff3c 548e 2bbc 3316 c3bc 13e4 f53b
00000100: 804a 61bd 095a c7bc 5e50 84be 9529 a53c
00000110: 73ca 3b3b 1ea2 69bd 5e8b c33c 2e7a 2cbd
00000120: 7bbc 1e3d cf33 a93c b323 09be 1ec2 92be
00000130: 722b b1bc 5749 b73d 9eeb 80bd ffc8 bc3c
00000140: 5303 dfbc b473 beba 83b8 c03d a04a a73d
00000150: 8765 68be 365e 63be 6d74 35bd 6034 91bd
00000160: c74d c3bd 96c8 243d a35c e9bd 5fba 69be
00000170: ef4c 303d 4485 bb3d b9f2 3bbe c989 22be
00000180: 5ec1 1dbe 0465 babc 6a4e 983d 52a9 1d3d
00000190: 9b73 82bc 962b febc fd93 58bd 29a7 db3c
000001a0: a46c e3bd 0921 72bd 2b37 a8be 9927 2bbe
000001b0: 598d 7cbb 6265 173d 6ef4 e03d 562d 09be
000001c0: dafa 89bb f925 dcbd e6ce 223e 0dd0 a43d
000001d0: c148 97bd 2a7f b1bd 0414 0dbd cd10 e9bc
000001e0: c0e1 00bd ad53 92bc a1a6 07bd eb0b 4a3c
000001f0: 9a5d 2abd 6c0e b2bd 6c14 0a3e e96a 9abd
00000200: 5e42 e93d c3a8 3e3c 348c a5bd 58a2 c5bd
00000210: f663 73bd 4f95 7cbd 42ee 8dbd df2d 6ebe
00000220: ddd0 9ebd 3e57 8abd 6906 9ebd 629d aa3c
00000230: 4605 12be 4265 c2bd a933 8dbd d1ad 7ebd
00000240: 6cf9 18be 8be5 febc 7e24 03be 1e69 bebd
00000250: c759 f7bd f058 013d 02b8 bb3d c947 d8bd
00000260: d76c 043e b50d debd 7e3b 523a e737 06be
00000270: a521 093e 7b07 2fbc 1b91 803c e6e2 81bb
00000280: 0cfc cf3d 536f a6bc 5e9b 7cbe 5e25 c5bd
00000290: 0684 96be 829e ee3d 8dee dabc d41c 03be
000002a0: fbf2 a63c 9714 afbc 9e5f 03be a810 01bd
000002b0: 29e2 17bd 466e c33c deb8 06be a0cf 91bc
000002c0: 2cf1 3cbe 1698 0cbd 0f26 32bd 11ff 93be
000002d0: fa24 5f3d 1337 76be 676a 97bd 2a6f 0b3d
000002e0: db62 05be bc83 f8bd 8ebc efbd 1499 21be
000002f0: b492 f0bc 8075 cabd 7036 853d 90fc 71be
00000300: 8c98 953d da58 98bc 8ec3 cc3c 6325 42bd
00000310: 66ab 66be 9f28 35be 158d 7bbd 375d 3bbe
00000320: 426f 9bbd 6ab0 ae3d 85c2 5cbe ba56 5fbb
00000330: 2656 84bd da07 8e3c 347c aebc 0545 35be
00000340: 6c5f 11be 1490 bd3b db80 223e 5a2b 5f3d
00000350: 8d20 50be 0c63 11be 2488 b23c fa06 17bd
00000360: 4dfd 9a3d 3d4a e1bd cf9a 72be 767a b33d
00000370: 8b03 00be 0b41 47be 902d e9bd 7ed3 493d
00000380: fa0b 903d b0a6 6cbd 2229 bcbd 642f 39bc
00000390: 0cb0 5d3d 4fb7 02bd 5d29 0fbe 43ad 0bbd
000003a0: 6019 ddbd c873 cdbd b63e bbbd c7db b7bd
000003b0: a678 21bd e889 fcba e443 0cbe 4dfa aebd
000003c0: 72d2 02be 79b2 f2bb f86a 50be 5bbd c43d
000003d0: 9be3 2fbe 39d9 00bd 6a6f 22be 5b76 00bd
000003e0: 1a1b a8bc e1d0 843d 5e31 dbbc 3b33 24bc
000003f0: 89f7 883c 31ba 6fbe 63a7 83bb e85f 25bc
0.16720672 -0.06090628 -0.21147904 0.08441792 0.0016713561 -0.13691863 -0.031664144 -0.03464735
-0.25683022 -0.100387506 -0.0012024109 0.039978404 -0.045020867 -0.16647418 0.047924694 -0.21083611
0.0460459 0.031693302 -0.13491629 -0.05465141 -0.106771626 0.031174246 -0.17549759 0.0038491553
-0.042066567 0.009258722 0.01718312 -0.0138806105 -0.013108494 -0.11493193 -0.032329686 -0.009077865
-0.1822646 -0.12405118 -0.012377689 -0.0100872405 -0.10394435 -0.051362377 0.12621856 -0.11446386
-0.15664446 0.018789481 0.082102075 0.032490775 -0.13540624 0.11273153 -0.1266937 -0.17703414
-0.120776355 -0.1128334 -0.15749756 0.034123704 -0.0560038 -0.21324873 -0.08010486 -0.033728927
-0.05293697 -0.11768818 -0.11334933 -0.11594961 0.031233957 -0.010470945 -0.023814296 0.007503995
-0.05500269 -0.024334924 -0.25842565 0.02016143 0.0028654605 -0.057039373 0.023870166 -0.042108707
0.038753968 0.020654587 -0.13392524 -0.28663725 -0.021627162 0.08949535 -0.062949404 0.023045061
-0.027223265 -0.0014530332 0.09410193 0.081685305 -0.2269498 -0.22203907 -0.044300485 -0.07090068
-0.09536319 0.040230356 -0.11394622 -0.22825001 0.04304212 0.09156278 -0.1835431 -0.15872873
-0.15405795 -0.022753246 0.07436831 0.038491555 -0.015924266 -0.031026643 -0.052875508 0.026813107
-0.11104706 -0.059113536 -0.3285459 -0.16714324 -0.0038536398 0.03696192 0.10984121 -0.133962
-0.004210812 -0.1074943 0.15899238 0.08047495 -0.073869236 -0.08666833 -0.034442917 -0.028450394
-0.031465292 -0.017862165 -0.033117894 0.012331943 -0.04159317 -0.08694157 0.13484353 -0.07539923
0.11389612 0.011636916 -0.08083382 -0.09650105 -0.059421502 -0.06166583 -0.0693021 -0.23259686
-0.07754681 -0.067549214 -0.077160664 0.020827 -0.14259824 -0.0949197 -0.06894619 -0.062177483
-0.14938897 -0.031115314 -0.1280689 -0.09297393 -0.120776705 0.031578958 0.09165956 -0.10560567
0.12932144 -0.10842458 0.0008019729 -0.13107263 0.1339174 -0.010682936 0.015694192 -0.003963816
0.10155496 -0.020316755 -0.24668643 -0.09626268 -0.293976 0.11651327 -0.026725078 -0.12803966
0.020379534 -0.021372123 -0.12829444 -0.031510025 -0.037080918 0.023856293 -0.13156459 -0.017799199
-0.18451375 -0.034324728 -0.043493327 -0.28905538 0.054478623 -0.24044447 -0.073933415 0.03404156
-0.13025992 -0.12134501 -0.11705886 -0.15781051 -0.029366829 -0.098856926 0.06504524 -0.23631501
0.07304487 -0.018597055 0.024995591 -0.047398936 -0.22526321 -0.17691277 -0.061413843 -0.18297277
-0.0758958 0.08529742 -0.21558578 -0.0034078793 -0.06461744 0.017337728 -0.021299459 -0.1770211
-0.14196557 0.0057849977 0.15869467 0.054484703 -0.20324917 -0.1419794 0.021793433 -0.036871888
0.075678445 -0.11000488 -0.23691867 0.08763592 -0.12501352 -0.19458406 -0.113856435 0.04927396
0.07033534 -0.057776153 -0.09187533 -0.011302803 0.05412297 -0.031913098 -0.13980623 -0.034100782
-0.107958555 -0.10031849 -0.091428205 -0.08977466 -0.0394217 -0.0019267173 -0.13697773 -0.08543835
-0.12775591 -0.0074065295 -0.20353305 0.09606429 -0.17176668 -0.03145716 -0.15862814 -0.031362873
-0.020520736 0.06485153 -0.026756939 -0.01002198 0.016719596 -0.2341087 -0.004017757 -0.010093667

mlp_1/MLP_0_1/hidden_1_1/BiasAdd/ReadVariableOp:0 f4 [256]
00000000: 7e89 9fbd 5c23 7fbe 2258 c7bd f5a7 4f3d
00000010: 02ac 99be 69a9 43be c400 a3be f246 9bbe
00000020: cbbc 5abe 85ec 69bd 4d1b acbd b859 40bc
00000030: 299c 54be 194e d5bc 259b 97bd aa67 cabd
00000040: 779b 03be 630a a8bd 079a 83bd a425 8bbe
00000050: 1465 81be 2724 4dbd 4953 e0bd 3b5c b7bd
00000060: 5a58 66bd 1529 88bd 92df ddbd ec07 0abe
00000070: 8245 96bd 36e0 38be 31ef 1fbe fb1b 74bc
00000080: ec59 7ebe bd9e 4abe b9c8 3dbd 8a9a 9ebc
00000090: de48 4dbe 9fd6 4abe f4a3 3abe 1d92 3ebc
000000a0: 467b d7bc 856d d9bd 5c6c b4bd 15af 81be
000000b0: 2ba0 c2be fc51 7abe f350 09be ed71 5cbe
000000c0: 2c50 a3be f20c 82be d381 a9bc dba6 04bd
000000d0: 1beb d5bc 4846 40be 2ecf 86be 50a0 c0bd
000000e0: 524e a7be 6baf 29be cf91 b1be 5b15 8dbe
000000f0: e933 b83c 97b0 623d 6f44 fbbd 1fa1 9abe
00000100: 4ac3 2bbe c273 90be 9603 4abe cd69 49be
00000110: 710b 00be 3235 f7bd e143 35bd b697 7ebe
00000120: b9a3 123d 78db 40be a02f e0bd 4cf8 a0be
00000130: 7f20 fbbe fcc8 1abe f686 bebd 6a06 fbbd
00000140: 6ddb 0bbe 9d12 eabd 38c1 c2bd aaed 45bb
00000150: 78a0 3bbe 3694 3b3d 86cf 33bd 7f0d 0bbe
00000160: f30d 78be 2797 9ebe 3c16 36be 7cfb 8c3c
00000170: ad9a bfbd cde8 073d 5d6d e2be dbb3 5fbe
00000180: 3821 81be 67f5 b4bc 1075 1dbe 6391 6dbe
00000190: 50f6 0abd ff9c 2bbe b2f2 35be e59f a7bd
000001a0: 856a 6fbe 32b4 32be e058 42be df60 57be
000001b0: 57aa 15be 22b9 c5bd fed2 35bd 8ad9 d23c
000001c0: 3c62 59be 2ccb a0bc 8756 79be 1e92 aabd
000001d0: 52ea 32be 1377 00bb 0167 8cbc 3a84 a5bd
000001e0: f29b 26be 7b9b 1ebe 35ea 82be 4216 a2bd
000001f0: 6c16 75be 1281 cdbd 842b b1be 7931 653d
00000200: 9bb2 67bd 6da6 a2bd 1dc5 86bd 0a17 fa39
00000210: 260b 29be f364 bdbe ebca 74bd 54d4 8fbd
00000220: 3381 66be 1303 d6bd 34c9 fbba b562 80be
00000230: cbe4 35be 08c9 43be ea5e b8bd e18c 9abd
00000240: fc03 bebc cb2e acbd 3549 44be 2c1c 3abe
00000250: ebda 96be dc0d 8dbd df2d c63d 72bb 89be
00000260: 6a00 57bd aa44 ddbd cdd9 29be 87aa 01bc
00000270: 046a a0be 87cf b3bd 799d 5fbe e8e8 91be
00000280: 6d4e 9fbe c9fd c8bd 66ca d6bc e547 3dbe
00000290: ebb2 9fbe 3d48 103d 06e1 3fbd a2a8 91be
000002a0: 8b1f e5bd 637a 23be bf48 c8bc 43a4 85be
000002b0: 80dc 58be 443f 2e3d a3a0 b3be c5d3 03be
000002c0: d646 ecbd f7dc 75bb ba0f b638 9250 7bbe
000002d0: 8b8c 1ebd a7c7 98be 6c05 3ebe b448 05be
000002e0: 074e 9bbe 0bb6 14bc bb03 ffbd 7a99 aabe
000002f0: 3a4d 71be e1ae bbbd 2059 bcbd f67c 20be
00000300: db1c 993b f6fe e7ba 57a6 ddbd cb8f f6bd
00000310: e6db 73be a697 dabd 606e e7bd 7ff1 95bc
00000320: fc34 7bbe bffd 8ebb efd5 86be 26ad ccbd
00000330: c045 e13b 42df a0be 1ac3 85be 4f89 72be
00000340: 2790 13be 3935 26be d164 34be 7895 e7bd
00000350: ff3d c6bc 8049 dcbc 9dbd 443c f7d1 38bc
00000360: 2a67 98be 8259 a8bd 3700 3bbd 88a1 d8bd
00000370: 6505 83be ade2 1bbe 6aa0 14be 290b aebd
00000380: 1b9c 60be 7240 e2bd 5024 8abe 2372 67bd
00000390: 63e6 073c 065d 49be 8cba 29bd 82b5 04be
000003a0: f1b1 5ebe d9f3 5abe 1029 cebc 04e7 13be
000003b0: 7f1e 73be d5b6 59be f4b4 79bd 0033 38be
000003c0: 3127 38be 53a1 82be 6720 aebd 9d78 a93c
000003d0: 2e93 623c bdcc d5be 3cca 98be ee3e c7bd
000003e0: d3d0 4fbe da05 53be 054b 83be 16a7 4fbe
000003f0: 958b 65be b8cf bfbe 454d 77be 9f2e cbbd
-0.077898964 -0.24915832 -0.09733607 0.050697286 -0.30014044 -0.19107594 -0.31836522 -0.30327564
-0.21361081 -0.05711033 -0.08403645 -0.011740141 -0.20762695 -0.026038216 -0.07402638 -0.098830536
-0.12852274 -0.08205106 -0.06425863 -0.27177155 -0.2527243 -0.050083306 -0.109533854 -0.089531384
-0.056236602 -0.06648461 -0.10833658 -0.13479584 -0.07337476 -0.1805428 -0.15618588 -0.014899249
-0.2483899 -0.19787116 -0.046334002 -0.0193608 -0.20047328 -0.19808434 -0.18226606 -0.011631516
-0.026303899 -0.10616592 -0.088097304 -0.2532889 -0.38012823 -0.24445337 -0.13409786 -0.21527834
-0.31897104 -0.254005 -0.020691788 -0.03238569 -0.026113084 -0.1877681 -0.2632994 -0.09405577
-0.3267694 -0.16570823 -0.34681556 -0.27555355 0.02248569 0.05534419 -0.12268912 -0.3020105
-0.16773716 -0.28213316 -0.1972793 -0.19669266 -0.12504365 -0.12070693 -0.044254187 -0.2486256
0.03580067 -0.1883372 -0.10946584 -0.31439435 -0.4904823 -0.15115732 -0.093030855 -0.12257083
-0.13657923 -0.114293315 -0.0950951 -0.0030201473 -0.18322933 0.04579564 -0.04389908 -0.13579367
-0.24224071 -0.30974695 -0.17781919 0.01720976 -0.09355674 0.033181 -0.44224063 -0.21845953
-0.25220656 -0.022089673 -0.15376687 -0.23199992 -0.03392631 -0.16759108 -0.17768362 -0.08184794
-0.23380478 -0.17451552 -0.18979216 -0.21033047 -0.1461576 -0.09654452 -0.04439067 0.025738496
-0.2122888 -0.01962813 -0.24349414 -0.08328651 -0.17472199 -0.0019602224 -0.01713896 -0.08081861
-0.16270426 -0.15488999 -0.2556931 -0.079144016 -0.23934335 -0.10034384 -0.34603512 0.055955384
-0.056566816 -0.079418994 -0.06580565 0.0004770088 -0.16508159 -0.3699108 -0.05976383 -0.0702292
-0.22510223 -0.10449805 -0.0019209743 -0.25075307 -0.17763059 -0.19119656 -0.090024784 -0.07546402
-0.02319526 -0.084073626 -0.19168551 -0.18174809 -0.29463896 -0.06887409 0.09676718 -0.26900822
-0.05249063 -0.10804112 -0.1658699 -0.007914192 -0.31330884 -0.08779817 -0.21837415 -0.28498006
-0.31114522 -0.09814031 -0.026219558 -0.18484457 -0.3119119 0.03522514 -0.04684546 -0.2844897
-0.11187657 -0.15964656 -0.02444875 -0.26101884 -0.21177864 0.042540804 -0.35083494 -0.12873752
-0.115369484 -0.0037515739 8.6813656e-05 -0.24542454 -0.03870825 -0.29839823 -0.18556756 -0.13016015
-0.30332968 -0.009076606 -0.124518834 -0.33320218 -0.23564616 -0.09164215 -0.09196687 -0.15672669
0.0046726293 -0.0017699886 -0.108227424 -0.12039145 -0.23814353 -0.10673456 -0.11300349 -0.01830363
-0.2453193 -0.004363745 -0.26335093 -0.09993963 0.00687477 -0.31420332 -0.26125413 -0.23685192
-0.14410459 -0.1623124 -0.17616583 -0.11307806 -0.024199484 -0.026890516 0.012008098 -0.011280528
-0.29766208 -0.08220197 -0.0456545 -0.10577685 -0.25590053 -0.15223189 -0.14514318 -0.084982224
-0.2193455 -0.11047448 -0.2698083 -0.056505334 0.008294675 -0.19664392 -0.04143767 -0.12959865
-0.21747567 -0.21382083 -0.025166065 -0.14443594 -0.23742102 -0.21261151 -0.060963586 -0.17988205
-0.179837 -0.25513706 -0.08502274 0.020687396 0.013829036 -0.41757765 -0.29841793 -0.097288
-0.20294504 -0.20607701 -0.25643173 -0.20278582 -0.22416528 -0.37463164 -0.2415057 -0.09921002

mlp_1/MLP_0_1/hidden_0_1/Cast/ReadVariableOp:0 f4 [45, 512]
00000000: bc4f a4bb ed1f 6cbe 385b 9a3c 9d15 2f3e
00000010: 4667 c13d d2ea 833d 10ce 3ebe 3933 24bd
00000020: 6721 653e 3a6a 1abd 2a2d 2fbe edee 99bd
00000030: e595 013e cc14 a0bd 7178 2fbe f525 cbbd
00000040: 696d 01be 6ae9 16bd 85dd 53bd 6331 8ebe
00000050: 0ccd 66be ce75 2bbe e4d5 f7bd 617f 2fbe
00000060: 2a41 91be ca96 043e 9088 51bd d388 c2be
00000070: 0227 8c3e e630 16bf 2c78 10be d657 4bbe
00000080: bfce ce3d d7e0 193d 9158 d83e 3f9c e4bd
00000090: 9974 7d3d ec12 853e 27e1 853e 651e ca3d
000000a0: ec7d 2b3e 1eb8 003e 003c 893d 6aa0 bfbd
000000b0: 3770 7b3e 7ddc e13d 4105 b8bd 2704 2a3e
000000c0: f143 e0bd 65cd 8f3e 5214 c6bd ab3d 0fbe
000000d0: d272 dcbd 25a6 613d c206 503e e246 b03d
000000e0: bc8e f73d 2c5d 15be 87ae 60bb a263 da3d
000000f0: d0e1 983e 8408 8a3e 1ae9 713b 346a 3cbb
00000100: 1471 11be 5b4b ed3d 6213 183d 8840 4a3e
00000110: 2f98 71be 3da5 1c3d fac1 ccbd 9f84 bb3c
00000120: a98b 0fbe 47b2 93be fe55 3bbd f34f 1fbe
00000130: 0864 1b3e 44ac 663c f1db 1a3e 1889 e53c
00000140: c224 353e d6ea c53e b97e 3ebe bdea 813e
00000150: 1fca f5bc 3fc0 0f3c c2da e6bd 801b 923e
00000160: 2e7a 20be df43 11be a3ce 033e 022a b03d
00000170: 330d a6bc 7aff 6dbd 634d 14bd edb9 8a3d
00000180: bb54 663d 5478 c6be 1fba 5bbe a513 e43d
00000190: ded7 12be f78f c33d 0b80 3f3d 4b76 82bd
000001a0: cf9b a7bd 0f1c 6d3e 98d2 8b3e 5de0 35bc
000001b0: 758c 23bd 5057 233e e232 5cbe 4940 4abc
000001c0: 26ed 1d3c 4874 f23d 2036 7fbc 890a 8f3d
000001d0: 0726 0f3e e52d 5dbe 941e 053e 9930 00be
000001e0: f282 06be bfa1 233c ad28 4e3e b65f 1ebd
000001f0: 268e 273e 8a9b 44be 2db5 80bd 76e9 cdbd
00000200: e578 5abe 57e7 4a3e 4b96 d0be 4505 a3bd
00000210: 31e7 9cbe c838 1ebe 579a 883e de60 86be
00000220: c7f0 5a3d b334 163e b8bf 9c3c a8c9 67bd
00000230: 13ec 343c 400d ca3c 0174 c6bd 4ddf c1bd
00000240: 11c2 823e 61c6 c33d 073f 1abe 83fd 0a3e
00000250: 81bf 4dbd 2f99 99be dd65 d43d d362 99be
00000260: 8471 2db8 2051 103e 7f4c 0b3e e199 2fbd
00000270: 0ba1 1e3e 8c0f 6f3d ddf7 d8bd c5e0 5d3e
00000280: 630c a0bc 43c2 8abd 0e65 553e 3b27 f33d
00000290: d0c5 c5bd f7a4 2ebe dcd6 9937 56f0 ae3e
000002a0: e394 a03e 9212 b6be c4fe 89be baeb 3abe
000002b0: 854b f53d 09f3 02bf 9c18 6ebe 149e 413b
000002c0: 036f a73e 9c6f 95bd 3e2b 0bbe e98b 87be
000002d0: 5308 87bd 9cdd 0c3e 01a1 193e ab95 7cbd
000002e0: 5a4d 31be 8ec8 753e d5f5 f3bd 2ce2 5fbe
000002f0: e101 c03d 9958 8d3e e5ff 163e 38d9 edbd
00000300: 7bab 693c bca0 263e b80d 67be d3f5 503d
00000310: 2860 2cbe 4a28 003e c9d6 f33c fb39 42be
00000320: ac52 b5bd 008c 4bbc 77f9 c7bd a8d6 5b3e
00000330: bf5a 1bbe dd21 9abe 956f 3d3d 6ce6 c23e
00000340: 2f5b da3d 0045 61be e52d b63e 14bf 1a3e
00000350: 7315 463c 1a8b f9bd 0693 f9bc e661 dabd
00000360: 6ac7 b53d c30e 6a3d d95b a13e a7a6 6cbe
00000370: 0760 db3d 4b81 4c3e a976 363e aa83 453e
00000380: 0ff1 363e ec2d 113e cf5d b5bd 089a afbe
00000390: 216d 233e 009c 17be a1d3 38bd c307 31be
000003a0: 23ee f33b 9de3 ed3d f2a8 513e 0ccc 923e
000003b0: 0173 85be e4a0 1cbe da93 f2bd e51e 653d
000003c0: aa06 7a3d 7743 0f3d a073 bb3d fce5 583e
000003d0: 6260 11be 2ea6 ea3d fbf4 58be bd6f be3d
000003e0: f2ea 9abe 5c60 f43c d38f c4bd ab01 7abe
000003f0: 8150 82bd 06df 58be 5bb2 e8bd fcde e0be
-0.005014388 -0.23059054 0.018842325 0.17098089 0.09443526 0.06441273 -0.18633294 -0.040087912
0.22376023 -0.03769896 -0.17107072 -0.075162746 0.12654836 -0.07816467 -0.17135789 -0.09919349
-0.12639393 -0.036843695 -0.05172493 -0.27772054 -0.22539157 -0.16744158 -0.12101343 -0.17138435
-0.2837003 0.12948146 -0.051155627 -0.37995014 0.2737351 -0.58668363 -0.14108342 -0.19857726
0.100980274 0.03756794 0.4225507 -0.11162614 0.061878774 0.25991 0.2614834 0.098690785
0.16747254 0.12570235 0.06700897 -0.093567684 0.24554525 0.11028383 -0.08985377 0.16603146
-0.10950459 0.2808639 -0.096718445 -0.13988368 -0.10764088 0.05509009 0.20315078 0.0860727
0.12087771 -0.14586323 -0.0034283714 0.10663535 0.2985978 0.26959622 0.003691262 -0.0028749825
-0.14203292 0.115866385 0.03712786 0.19751179 -0.2359321 0.03824352 -0.099979356 0.022890387
-0.1401812 -0.28846952 -0.045736305 -0.15557842 0.15174878 0.014079157 0.15122963 0.028019473
0.17689803 0.38655728 -0.18603028 0.25374404 -0.030003605 0.008773862 -0.112721935 0.28536606
-0.15671608 -0.14186047 0.12871794 0.08601762 -0.020269966 -0.05810497 -0.036206614 0.06773744
0.05623315 -0.38763678 -0.21457718 0.111365594 -0.1434016 0.095489435 0.04675297 -0.06370219
-0.08184015 0.23155235 0.27309108 -0.011100856 -0.039928872 0.15951276 -0.21503785 -0.012344428
0.00963906 0.11838585 -0.015576869 0.06984431 0.1397935 -0.21599539 0.12999946 -0.12518539
-0.13135889 0.009987294 0.20132704 -0.038665496 0.16362819 -0.19199958 -0.062845565 -0.10054295
-0.2133518 0.19814812 -0.40739664 -0.079599895 -0.30645135 -0.15451348 0.26680252 -0.2624578
0.05345228 0.1466854 0.019134387 -0.0565888 0.011042613 0.024664521 -0.09690095 -0.09466419
0.25538686 0.09559322 -0.15063106 0.1357327 -0.05023146 -0.29999682 0.103709914 -0.2995821
-4.1352134e-05 0.14093447 0.136034 -0.04287136 0.1549112 0.058364436 -0.10594151 0.21667774
-0.019537156 -0.06775334 0.2083933 0.11872717 -0.0965687 -0.17055117 1.8339073e-05 0.34167737
0.31363592 -0.35561043 -0.26952183 -0.18253985 0.11977295 -0.5115209 -0.23251575 0.0029543685
0.32701883 -0.072966784 -0.13590714 -0.2647393 -0.065933846 0.13756412 0.15002824 -0.061666172
-0.17314664 0.24002287 -0.11912123 -0.21863621 0.093753584 0.27606657 0.14746054 -0.11613697
0.014262076 0.16272253 -0.22563827 0.051015686 -0.16833556 0.12515369 0.029765503 -0.1896743
-0.08853659 -0.012423515 -0.097643785 0.21468604 -0.15171336 -0.3010396 0.04624899 0.38066423
0.10661923 -0.21998978 0.3558189 0.15111953 0.012090075 -0.12184735 -0.030465614 -0.10663204
0.08875926 0.057142984 0.31515387 -0.23110448 0.10711675 0.19971196 0.17818703 0.19288507
0.17865394 0.14177674 -0.08855783 -0.34297204 0.15959598 -0.14805603 -0.0451237 -0.17288117
0.0074441596 0.116156794 0.20474604 0.286713 -0.26064304 -0.1529575 -0.11844607 0.055937666
0.06104151 0.03497645 0.09152913 0.21181482 -0.14196923 0.114574775 -0.21187203 0.09298656
-0.30257374 0.029831104 -0.09597745 -0.24414699 -0.06363011 -0.21178827 -0.113621436 -0.43920124

mlp_1/MLP_0_1/hidden_0_1/BiasAdd/ReadVariableOp:0 f4 [512]
00000000: 0dea b3bd 66e9 85bc 3e12 e2bd cc6d febd
00000010: 8222 963d 4886 673d 18c7 dfbe 8d56 5cbe
00000020: bad8 04be 9de9 48be 3cf6 7fbe a843 623d
00000030: 928a 7dbe c697 a7be 7677 ccbd dc97 95be
00000040: 44bf 66be 5828 98be 6c62 683d 9792 3d3a
00000050: 8313 ae3d 6af3 3a3e 6d77 1fbe 11e3 86be
00000060: b032 57be 0ca7 433c 87cf e9bc bbc8 90be
00000070: 9011 4bbe 214f 9dbe c76e 42be f49c e0bc
00000080: 6afd 91bd 7993 debe 83b0 59be 24e3 c7bd
00000090: 1f8b 70be dfcf 55be de59 aabd 3668 81be
000000a0: da2c f4be 3494 86be c565 abbe 74f4 94be
000000b0: 966b b1be 20e5 98bd f42e 82be 939d 22be
000000c0: bd66 6ebe 3902 f1be 75bf 0fbe 7431 64be
000000d0: 595a 97be 372c 86be 8f31 a4be 6ef5 c3be
000000e0: a443 96bd ac58 17be d4a8 11be f274 c6bd
000000f0: f094 00bf 51d9 b6bd f2ed 37be 6d78 013e
00000100: 7820 3fbe ddc1 00be 1615 e83c 3ff9 0bbe
00000110: 838b 46bc 4927 a1be f791 86bd e6f0 743d
00000120: 1bf8 03bd 8d03 81be 8eb3 91be d23b a6be
00000130: 3f49 1e3d d1b6 e73d 2771 48be 294d a1be
00000140: 2c04 a5be 5bf0 7cbd b364 69be ae11 e93d
00000150: 3601 44be fb87 11be c232 85be 09fb b3bd
00000160: be17 b3ba 3c00 7ebd bfe1 babe b751 bfbe
00000170: 4146 483c 55d7 26bd feef 23bd c35b d6bd
00000180: 2112 71be fbb4 a5bd ea08 85be 614c 9bbe
00000190: 1fd8 0bbf 0df0 89be f198 7bbe ebd4 92bd
000001a0: fec8 50be 9244 5c3d 00b1 4b3c 8791 1b3e
000001b0: 81d3 0ebd dccb 53bd 11dc 82be 8563 03bf
000001c0: 1944 e53b 9af3 e9be e3db 483d 1315 60be
000001d0: c079 18be 1082 85be 4e70 d3bc f0ea 15be
000001e0: 9506 f6be a03b 99bd 321e dfbe e5f6 aabe
000001f0: 44c4 d6bd dd79 ddbe be6e 9d3b 294c 2bbe
00000200: 48bb e8bd d0e4 c9be 8686 38be 889b acbe
00000210: 1059 8abe 5be8 4ebe 9b12 12be d3dd 86be
00000220: 4191 53be 0147 223d a978 8bbe ea71 afbb
00000230: 0686 9bbe 187d 78be c13f 6cbe c14e 0cbc
00000240: 88aa 873c 9918 a3bd f34d 143d 5f34 1fbe
00000250: d608 b5be de13 c4be afe2 38bd 5b06 07be
00000260: 3716 d9be 16fa 36be 4fb1 44bd 61cc 06bf
00000270: 4e5e 33bd 5838 18be ba70 96bd af2c 0ebf
00000280: c001 b6bd 1496 dfbd 7c94 1ebe f57f 9bbe
00000290: e7f8 4bbe 6350 113e 0dd2 9dbe 74e2 81bd
000002a0: aecd 36be d4f8 ffbd 20a9 f5bd ad59 50be
000002b0: 5c79 0dbe a77a 83be 0128 6cbe 6d7d d83b
000002c0: c5d6 f3bc 9ec7 a7bc 6173 19be f909 873d
000002d0: 1538 fd3c 905c 4c3e a487 97be 9841 f2bd
000002e0: 7408 a9bb 27df c13d 4c73 2abe 8229 393d
000002f0: 8a3d 5cbe 5515 34be 5622 25be 9d0d d0be
00000300: f84e 1c3c e1e5 01bf 4b38 2a3d 6b5b ed3d
00000310: 1bbc 1bbe 45b9 afbe c7c5 1cbe b347 6abe
00000320: c2be 223d bad8 aa3d a6e2 0cbe b0a4 d8be
00000330: c50a 1cbe 3da7 82be 46fc 4f3c f1f4 313d
00000340: 1a4b a3be f402 27be 8eac 14bc f064 173c
00000350: 79b4 c0bd ecb4 7ebe a382 c33c dc3d 8cbe
00000360: ff79 813e 0418 bbbe bda9 7e3c 46c6 09bd
00000370: 87bc e13b f3fa 2dbe 5d87 dfbd 4867 c238
00000380: ac4f acbe 4420 5fbe fae4 0bbd fd88 b8be
00000390: e4e6 abbe 16b0 8dbe 11ed ffbe d154 c5bd
000003a0: 50de 753c 5955 3bbd 5ab1 ccbe 70a1 913d
000003b0: e3bc 2fbc 7f4c d8bd e27d 82be 8761 5cbe
000003c0: 8afd 843d 8385 143e 6e8d eb3d efad f43c
000003d0: 9503 e73d 8278 00be 3953 1abe 52bc fc3c
000003e0: 6ed9 88be 5a22 0bbf 95d5 10be c40b e8bd
000003f0: 3b82 83be b292 e2bc b483 a9bb 402f b4be
-0.08784876 -0.016346645 -0.11038636 -0.12423286 0.073308006 0.056524545 -0.43706584 -0.21517392
-0.129733 -0.19620366 -0.24996275 0.055240303 -0.24759892 -0.3273298 -0.09983723 -0.29217422
-0.225339 -0.2971828 0.056734487 0.00072316214 0.08499815 0.18256918 -0.15572901 -0.26345113
-0.2101543 0.011941683 -0.02854134 -0.28278145 -0.19830918 -0.30724433 -0.1898757 -0.027418591
-0.07128413 -0.43471888 -0.2125874 -0.097601205 -0.2349057 -0.20880078 -0.08317922 -0.2527482
-0.4769047 -0.26284945 -0.33476081 -0.29092753 -0.34652394 -0.07465577 -0.25426447 -0.15880422
-0.23281379 -0.47072008 -0.14037879 -0.2228449 -0.29561117 -0.26205608 -0.3206906 -0.38273185
-0.0733712 -0.1477992 -0.14224559 -0.09690274 -0.5022726 -0.089281686 -0.17961863 0.12643595
-0.1866473 -0.12573953 0.028330367 -0.13669299 -0.012118223 -0.31475285 -0.06570809 0.05980005
-0.032219034 -0.25198022 -0.28457302 -0.32467514 0.03864407 0.11314166 -0.19574414 -0.3150418
-0.32229745 -0.06175266 -0.2279232 0.11380325 -0.19141087 -0.14212029 -0.26015288 -0.087881155
-0.0013663692 -0.062011942 -0.36500356 -0.3736703 0.012223781 -0.0407327 -0.040023796 -0.10466721
-0.23542072 -0.0809116 -0.25983363 -0.3033171 -0.5462665 -0.26940957 -0.24570061 -0.07169517
-0.20389172 0.05377633 0.012432337 0.15192233 -0.034869675 -0.051708087 -0.25558522 -0.5132373
0.0069966433 -0.45693666 0.049037825 -0.21883039 -0.14890194 -0.26075792 -0.025810387 -0.14640403
-0.48051897 -0.07482076 -0.43577725 -0.3339149 -0.104866534 -0.43257037 0.0048044613 -0.16728272
-0.11363846 -0.39432383 -0.18020067 -0.3371241 -0.27021074 -0.20205824 -0.1426491 -0.26341113
-0.20660879 0.039618496 -0.27240494 -0.005354156 -0.3037569 -0.2426647 -0.23071195 -0.008563698
0.016560808 -0.07963676 0.03620715 -0.15547322 -0.35358304 -0.38296407 -0.045138057 -0.13186018
-0.4239976 -0.17868838 -0.048020657 -0.5265561 -0.043791108 -0.14865243 -0.0734572 -0.5553693
-0.088870525 -0.10917297 -0.1548633 -0.3037106 -0.19919167 0.14190821 -0.3082432 -0.06342021
-0.17851898 -0.12498632 -0.11995149 -0.20346709 -0.13815826 -0.25679514 -0.23062135 0.006606749
-0.029765496 -0.020480927 -0.1498542 0.06593699 0.030910531 0.19957185 -0.29595673 -0.11828917
-0.0051584784 0.09466391 -0.16645545 0.0452056 -0.2150785 -0.17586263 -0.1612638 -0.40635386
0.009540312 -0.5074139 0.04155759 0.11589702 -0.15208475 -0.34321037 -0.15309821 -0.22878914
0.039732702 0.083421186 -0.13758335 -0.42313147 -0.15238483 -0.25518218 0.012694424 0.043446485
-0.31893235 -0.1630972 -0.009074343 0.009240374 -0.094094224 -0.24873704 0.023866003 -0.27390945
0.25288388 -0.3654176 0.015543398 -0.033636354 0.0068889293 -0.16990261 -0.1091449 9.2698785e-05
-0.33654535 -0.21789652 -0.034153916 -0.36042014 -0.33574593 -0.27673405 -0.49985555 -0.09635318
0.015006617 -0.04573569 -0.39979059 0.0711087 -0.010726186 -0.105614655 -0.25486666 -0.21521579
0.06493671 0.14504056 0.11501585 0.029868094 0.1127998 -0.1254597 -0.1507081 0.030851517
-0.26728386 -0.5434929 -0.14143975 -0.11330369 -0.25685295 -0.02765784 -0.005173171 -0.351923

ConstantFolding/mlp_1/truediv_recip:0 f4 [45]
00000000: 9d9b bc3f 7d63 3540 0286 e73f f080 8f41
00000010: 10b7 aa41 45c3 e941 835e 2941 ecb0 c140
00000020: c53a cc40 0db8 3441 e20e df40 afba bc40
00000030: 9e12 0441 21d8 e740 3e26 b940 3e56 4341
00000040: 96e8 df40 8f12 c240 d0b5 0b3f 7b5e a93e
00000050: 9c25 793e a270 0e3f b9f0 b53e 7c30 753e
00000060: 9d33 0e3f 39c8 ba3e 8874 833e f04b 103f
00000070: c609 b03e 3555 7d3e c4ed 8040 c58c 4140
00000080: 258d eb3f 415d 7e40 6cb3 4d40 872b df3f
00000090: ad56 6040 4ce4 6240 9470 de3f 651c 8140
000000a0: faaa 5b40 92c4 e23f c155 9a3f caff 5d40
000000b0: 50af ef3f
1.473499 2.8341973 1.8087771 17.937958 21.339386 29.220346 10.585574 6.052847
6.382174 11.294934 6.9705667 5.8977885 8.254545 7.245133 5.785918 12.208555
6.997142 6.0647655 0.545743 0.33079895 0.24330753 0.55640614 0.3553522 0.23944277
0.55547506 0.36480883 0.25674844 0.5636587 0.34382457 0.24739535 4.029024 3.024217
1.8402449 3.9744418 3.214076 1.7435158 3.5052903 3.5451841 1.7378106 4.034716
3.4323106 1.7716238 1.205742 3.4687371 1.8725376
